pommerman/resources/firstAgent.pt (torch_old, 758762 bytes, 4 tensors)

hidden.weight f4 [500, 372]
000000 81 69 20 bd f1 96 98 3c 94 3a 0c bd 02 1c 1c bd
       -0.039163116 0.018626662 -0.034235552 -0.038112648
000010 3a 29 e4 bb bd 82 d0 3c 5a d2 02 ba 58 f5 29 bd
       -0.0069629224 0.025452966 -0.0004990451 -0.041493744
000020 3e c8 00 bd 37 f1 be bc b3 66 f8 bc 4c 15 85 bc
       -0.031440966 -0.02330838 -0.030322408 -0.016245507
000030 ad 2f d8 bc 4a ef 29 3d f7 a3 8a bc 84 04 4f 3c
       -0.026389921 0.04148797 -0.016923888 0.012635354
000040 06 e6 02 bc 5f 2b 89 bb 84 de 40 bd c3 67 83 bb
       -0.007989412 -0.0041860784 -0.047087207 -0.004010172
000050 91 3d 9b 3c b3 84 09 3d 3e 76 95 3c ec 05 35 3d
       0.018950256 0.033573817 0.018244859 0.0441951
000060 8f 5f a1 3c 4f ce 0a bd 87 c3 cd 3c c4 06 8b 3b
       0.019698886 -0.033888157 0.025117649 0.00424275
000070 ed cd 62 3c 95 c8 99 3b c8 7a ec bc d5 50 ac ba
       0.013843042 0.0046931007 -0.02886714 -0.0013146648
000080 48 b4 cc b9 c8 5a 17 bd a4 73 3e 3c 3d d8 7c bc
       -0.00039044232 -0.03695181 0.011624251 -0.015432415
000090 fe ca 1c 3b 9c 90 f8 bc 8a 0f 0f bd 99 e3 05 3d
       0.0023924704 -0.030342393 -0.03492693 0.032687757
0000a0 7a f5 73 ba 8e fa 36 bc a5 00 ad 3c d1 4f f2 bc
       -0.0009306293 -0.011168135 0.021118471 -0.029579075
0000b0 6a 8e 37 bd a6 f9 ee bc a2 06 81 bc aa a9 17 3c
       -0.04481355 -0.029171776 -0.015750233 0.00925676
0000c0 05 28 9f bc 79 7a 48 3d 68 fa 3d 3c a1 88 02 bc
       -0.019428262 0.048944924 0.011595346 -0.007967145
0000d0 da 6e d6 3c d8 0b 2c 3d 96 13 80 3c 28 2e 1e bd
       0.026175905 0.042003483 0.01563434 -0.038618237
0000e0 27 05 50 bc 13 6f 3b 3d 9b e8 d8 3c 4d 4a 94 3c
       -0.012696541 0.045760226 0.026478102 0.018101836
0000f0 55 b6 0c 3c 46 1a 25 3d 24 4f 81 3c e5 3b 92 bc
       0.008588393 0.04030826 0.015784808 -0.017850826
000100 c0 c4 e8 3c 09 7f d0 bc 8d 17 4e bd c4 c3 75 3c
       0.02841413 -0.0254512 -0.05031543 0.015000287
000110 69 0a 15 bd 28 54 2a bd ac 47 09 bd 8d 70 8c bc
       -0.03638688 -0.041584164 -0.033515617 -0.017143512
000120 68 42 86 bc 5c 71 1a bd ae 66 32 3d ba 21 a2 3c
       -0.016389087 -0.037705764 0.043554954 0.019791473
000130 4c 77 c2 3c 0c 03 92 3c aa fc 3a 3d c8 43 28 bd
       0.023738526 0.017823718 0.045651115 -0.041080266
000140 a1 81 3f bd ac da 37 bd 1e c5 81 bc 3a 72 38 bd
       -0.046754483 -0.044886276 -0.015841063 -0.04503081
000150 62 96 e6 3c eb 4e 8a 3c ef 8f 28 bd 7d 90 02 bb
       0.02814788 0.016883334 -0.04115289 -0.0019922548
000160 2f 2c 52 3d 7d 02 a8 bc 58 bf e8 3b 7b b7 06 bd
       0.051311668 -0.020508999 0.007102888 -0.032889824
000170 ca 2b f8 3c bb 9b 1c bc bb 9b 0a 3c 9e 90 05 3d
       0.030294318 -0.009558613 0.008459981 0.03260862
000180 f2 ff 2c 3b 15 4a 28 bd 9e ab 16 bd 3a d3 09 bd
       0.0026397672 -0.041086275 -0.03678476 -0.033648707
000190 83 1b 08 bd 8e a9 2b bd 91 22 9d 3c 0f b7 2f bd
       -0.033229362 -0.041909747 0.019181522 -0.042899188
0001a0 f1 10 4e bd 9b 2d 8f 3c f4 f8 fc bc e4 fe 74 bb
       -0.050309125 0.017477801 -0.030880429 -0.0037383372
0001b0 9a ab 17 3d 5c ba 1c bd 74 68 d1 bb ca 9c 85 bc
       0.037028886 -0.038263664 -0.0063906256 -0.016310114
0001c0 05 e5 51 bd 50 57 cb 3b 2d e1 37 3d 98 70 32 bd
       -0.0512438 0.006205477 0.04489248 -0.04356441
0001d0 b2 0b 45 3c bb 1b 25 bd 45 a7 ae 3a 69 b7 62 bd
       0.012026714 -0.04030965 0.0013324997 -0.055350695
0001e0 b9 f5 c2 bc c5 b9 ba 3c 29 51 37 3c 3f c6 5b bd
       -0.02379881 0.02279366 0.011188784 -0.05365586
0001f0 a8 d1 71 3c e0 a9 70 bb d0 29 b6 bc f4 50 0e bd
       0.014759459 -0.0036722347 -0.022236735 -0.03474517
000200 0e 9e 20 bd 21 d4 db bc c8 16 26 3d 76 47 21 3d
       -0.039213233 -0.02683455 0.04054907 0.03937479
000210 3c 4f 16 bd bd 2b 53 bd a8 20 8c 3c 9c 91 cf 3c
       -0.036696658 -0.051555384 0.017105415 0.025337987
000220 09 50 c8 3c 3f 37 07 bd 0e d9 4a bd 03 26 52 bc
       0.024452226 -0.03301167 -0.049523406 -0.0128264455
000230 b2 c2 bd bc 2e 6c 38 3d 18 13 74 3c b0 80 b5 bb
       -0.023164127 0.045025043 0.01489713 -0.0055390224
000240 b2 df 19 3d 89 48 46 3d b8 ec 2f 3c c0 40 4e 3d
       0.037566848 0.04840902 0.0107375905 0.05035472
000250 ea 07 b0 bc fd 35 d5 bb 30 1f a6 bc 28 b8 fd 3c
       -0.021488149 -0.00650668 -0.020278543 0.030971602
000260 3a 31 43 3d b9 8e 14 bd c1 23 b2 3b 78 3c 56 bc
       0.047654368 -0.036268923 0.005436391 -0.01307594
000270 07 33 37 bd 3a 18 40 3d 94 2c 1b bd 70 00 4f bd
       -0.044726398 0.046898104 -0.03788431 -0.050537527
000280 38 de f5 3c e1 7c 53 bd 8d 5e db 3c 18 9c 21 3d
       0.030013189 -0.051632766 0.026778484 0.039455503
000290 30 70 c5 bb 1a 87 39 3d 98 16 78 bc 64 17 30 3d
       -0.0060253367 0.04529486 -0.0151421055 0.042991057
0002a0 b9 fc 14 bd a9 ee 7b 3d 9a 27 c3 3c d9 76 f4 bc
       -0.036373828 0.0615069 0.023822594 -0.029841827
0002b0 c1 75 fe bb d6 ec 67 3c cf 11 be bc e0 f2 29 bb
       -0.007765502 0.014155587 -0.023201851 -0.0025932118
0002c0 60 d2 56 bc a0 4c 79 3b ca d4 be bc ec ab e7 3c
       -0.013111681 0.0038040057 -0.023294825 0.02828022
0002d0 3f b1 22 bc 78 39 3b 3d 08 8b 4b 3c 83 93 27 bd
       -0.009929954 0.045709103 0.012423284 -0.040912163
0002e0 38 c8 05 3d 08 d0 36 3d 70 47 d3 bb 56 57 80 bc
       0.032661647 0.044631988 -0.006447725 -0.015666645
0002f0 a4 26 9d bc 00 b3 f5 ba 30 b1 f2 3c 5f 9a 13 bd
       -0.019183464 -0.0018745363 0.029625505 -0.03603589
000300 1f f1 00 bc 1a a3 18 3d ae 75 d6 bc 78 75 d1 3c
       -0.007869988 0.03726492 -0.02617916 0.025568709
000310 e8 fe 84 3c e2 3d 20 3d 40 0d e6 ba fc bf b9 3c
       0.01623483 0.039121516 -0.0017551556 0.022674553
000320 40 11 c2 bb 26 f8 29 3d e0 96 e5 3c 02 e3 bb bc
       -0.0059224665 0.04149642 0.028026044 -0.022935394
000330 80 50 e8 3c 22 66 0d 3d e8 6d 8d bb 7c c6 03 3d
       0.028358698 0.03452123 -0.0043160804 0.03217171
000340 08 75 08 3d 3c 58 de bc c4 9d 2d bd 0d 52 28 3d
       0.033314735 -0.027141683 -0.042386785 0.041093875
000350 ec 3e 1f bc 47 79 25 bd ec e6 42 3d 19 27 a2 3c
       -0.009719592 -0.040398862 0.047583506 0.019794034
000360 58 c9 76 bc 58 f8 34 3c 1c 25 2d bd da 94 4c 3d
       -0.0150626525 0.011045538 -0.04227172 0.049946643
000370 c4 f1 4f 3d 02 84 ba bc a9 e6 48 bd 12 8c 22 3d
       0.050767675 -0.022768024 -0.0490481 0.039684363
000380 59 30 24 3d 34 d0 25 3d a7 85 23 3d d5 6b eb bc
       0.04008517 0.04048176 0.039922383 -0.028737942
000390 f9 f1 6d 3c 0b a7 ad bc 62 f9 cf 3c 8a 69 c3 3c
       0.014523023 -0.021197816 0.02538747 0.023854036
0003a0 dd 66 0e bc 8c cb 7e bc 6a ee dd bc 18 30 ff 3c
       -0.008691517 -0.015551459 -0.027091224 0.031150863
0003b0 2c 05 02 bd 9c 0f 97 bc 40 3c d4 bc 42 a6 87 bc
       -0.031743214 -0.01844006 -0.025907636 -0.01655877
0003c0 28 b8 d2 bb 92 3c 0d 3d 58 c6 bc 3c c4 8e 17 bc
       -0.0064306445 0.034481592 0.023043796 -0.009250347
0003d0 f0 53 c8 bc 4f 02 04 3d c1 ab 2c bd 4f 00 f1 3c
       -0.024454087 0.032228764 -0.042155985 0.029419092
0003e0 32 b4 45 3d 6f 39 9e bc 9f c3 15 3d 93 7d 5a 3d
       0.04826755 -0.019314496 0.036563512 0.053342413
0003f0 e0 60 b4 3a cc 26 09 3d 01 50 4d bd 54 1d 45 bc
       0.0013761781 0.033484265 -0.050125126 -0.012030918

hidden.bias f4 [500]
000000 32 75 d1 bc 62 db 6e 3d 5f 28 51 bc 16 80 c8 3c
       -0.025568578 0.05831469 -0.012765973 0.024475139
000010 b2 3c 12 3c 8d 32 73 bd 05 4b 3d bd 5a 12 3b bd
       0.008925604 -0.05937438 -0.046214122 -0.0456718
000020 32 f7 3a bd ae 41 70 3c 0f c0 f6 bc 77 9f 9d bc
       -0.0456459 0.014664097 -0.030120878 -0.019241078
000030 3a 45 c2 bc 10 94 8a bc fa 48 a7 3c 72 88 cf 3c
       -0.02371465 -0.016916305 0.02042054 0.025333617
000040 3a f4 05 3d 49 46 2e 3c d0 d0 48 3c 45 8d c1 bc
       0.032703616 0.0106368745 0.012256816 -0.023626933
000050 4d 80 4e 3c d4 47 1c bc 89 c1 f2 bc 1d 71 03 3d
       0.0126038315 -0.00953861 -0.0296333 0.032090295
000060 40 ed dc 3b 34 c9 d4 bc b5 d5 4e 3c 53 ce d4 39
       0.0067421496 -0.025974847 0.012624194 0.00040589515
000070 8d dd 0b 3d 72 cb 49 3a ff f2 13 3d 4f 16 04 3d
       0.034146834 0.0007697857 0.03612041 0.032247838
000080 5a db 13 bc 2e 8e a1 3c c1 4c 0f 3d 68 ab 21 3d
       -0.009024465 0.019721117 0.034985308 0.039470106
000090 83 7b fb bb 4b c8 69 3d 34 da 01 3b d1 cf f0 3b
       -0.007674636 0.05707578 0.0019813897 0.0073489924
0000a0 10 f8 e9 ba d5 52 99 3c 1f 05 28 bc b9 bb 96 bc
       -0.0017850418 0.018716255 -0.010255127 -0.01840006
0000b0 04 47 e1 bb a9 7c a8 bb 6f 95 e6 3c fb 3b 2f bd
       -0.006874921 -0.005141814 0.028147427 -0.04278181
0000c0 21 3a 38 bd 7c 95 d0 bc 23 0d e5 bc 7e eb 24 3d
       -0.04497731 -0.025461905 -0.027960366 0.040263645
0000d0 49 03 30 3c e5 a1 db 3c 6a 36 ee 3a 91 2b 04 3b
       0.010742971 0.026810596 0.0018174176 0.002016757
0000e0 e3 ee 39 3c ce c3 38 bd 2c 88 47 3d 9e 09 46 3d
       0.011348459 -0.04510861 0.048713848 0.048349015
0000f0 46 92 c8 bc 13 44 5c bd a0 0c 1d bd ff bb 1a 3d
       -0.024483811 -0.053775858 -0.03834212 0.037776943
000100 bb 11 8f bc f2 6c 51 3c 8d 43 0b bd ed 98 0a 3c
       -0.01746451 0.012782322 -0.03399997 0.008459312
000110 d0 97 51 bd 52 ec e3 bc 5e a1 eb bc 9c 9c 2a bd
       -0.05117017 -0.027822647 -0.02876347 -0.04165326
000120 5d 52 4f bd ff df a9 bc af 82 70 3c a6 bd da bb
       -0.050615657 -0.020736692 0.014679595 -0.00667544
000130 c9 96 ba bc 04 9c dd 3c bf 13 7d 3c ee 7d 90 bc
       -0.022776978 0.027051933 0.015446602 -0.017638173
000140 ee 90 34 bc a0 c0 da bc a4 0a 46 bd 18 b9 f0 3c
       -0.011020882 -0.026703179 -0.04834999 0.029385135
000150 9e db 06 3c 81 36 61 bc 9c ec 2e bd 5a c0 96 bc
       0.008231072 -0.013745905 -0.042706117 -0.018402267
000160 cd 78 c6 bc b2 93 f8 bc 19 9e 5f 3c 79 d7 5e bc
       -0.024227524 -0.030343864 0.013648533 -0.013601177
000170 82 c0 17 3d 3f be 0d bd c8 c3 4f 3d 98 a8 21 3d
       0.037048824 -0.03460526 0.05072382 0.039467424
000180 ac 0b 52 3d f9 c9 08 3d bf 36 e4 3c bb 3c 40 bb
       0.051280662 0.03339574 0.027858136 -0.0029333073
000190 77 c7 e1 bb f7 ce 25 3d 1d 95 6f bc 05 e1 22 3d
       -0.006890233 0.04048058 -0.014622954 0.039765377
0001a0 cd d2 67 bb 09 6c ee 3c f8 30 62 bd 6b d9 ec 3c
       -0.003537345 0.02910425 -0.05522248 0.028912267
0001b0 64 11 33 bd 25 fa 98 bc d5 03 24 3d e7 e2 28 3d
       -0.043717757 -0.018673966 0.040042717 0.041232016
0001c0 24 fd 37 3b 61 c9 40 bc 99 d5 46 bd b2 45 12 3d
       0.0028074468 -0.0117667625 -0.048543546 0.035710998
0001d0 4c da 5b bc 39 f6 e3 bc 17 5f df bc 69 61 96 bc
       -0.013418745 -0.027827369 -0.027267022 -0.018356996
0001e0 74 24 10 3d 9d 9c d1 3c b1 0d bb bc 93 d4 c8 3b
       0.035191014 0.025587374 -0.022833677 0.0061288564
0001f0 f2 66 20 3c 23 4d ac bc 0a a8 4f 3d 8c 76 21 bc
       0.009790169 -0.021032875 0.050697364 -0.009854924
000200 ca 62 32 bd ee b6 8a bc dc c7 8c bc bb a8 34 3d
       -0.043551244 -0.01693293 -0.017185144 0.044106226
000210 51 dd bd bc 76 af 3b bd c3 2f 98 3a 2f 9e ed bc
       -0.023176821 -0.04582163 0.0011610914 -0.029006092
000220 41 32 90 3a b8 4c 28 bd ed da 3b 3d 46 29 c3 3c
       0.0011001305 -0.04108879 0.04586308 0.023823392
000230 9c 9c 40 bd d1 f5 36 3d c2 1e 91 3b 35 c8 1d 3c
       -0.047024354 0.044668023 0.0044287154 0.009630253
000240 c9 75 1a bd 90 ef fd 3c c6 38 2b bd 36 e4 09 bd
       -0.037709985 0.030998021 -0.04180219 -0.033664905
000250 5a f3 fb bc 0f 2b 29 3d 78 b8 d2 bc df f5 6b 3d
       -0.030755688 0.04130083 -0.025722727 0.057607528
000260 44 de 8c 3c 89 fb 16 bd 26 c2 2c 3d 8d 6a 1b bc
       0.017195828 -0.036860976 0.042177342 -0.009485853
000270 e9 29 1a bd 8e 4d cf bc d6 15 2a bd 3e 4a 2d bd
       -0.037637625 -0.025305536 -0.04152473 -0.04230713
000280 76 ef ba 3c 56 cc 61 3d df 9f 27 bd d1 2b be 3b
       0.022819262 0.05512651 -0.04092395 0.005803563
000290 9b 8d 1a bc ca f2 da ba 54 4f 12 bd bd 78 e3 bb
       -0.009433175 -0.0016704437 -0.035720184 -0.0069418834
0002a0 c9 13 10 bd 13 26 78 3b 2a 59 32 3d e6 6e ed bb
       -0.03517512 0.003786449 0.043542065 -0.007245886
0002b0 1b 80 0e 3b 91 6c 08 bd 31 65 8c bb 69 de c4 37
       0.0021743837 -0.033306662 -0.004284524 2.3468589e-05
0002c0 df 11 e7 bb ef 65 91 3c 06 2b 0a 3d d0 ff 09 3d
       -0.007051691 0.017748801 0.033732437 0.033691227
0002d0 77 ac fe 3c 92 f2 82 bc b9 12 15 bd 9e 80 fa 3b
       0.031088097 -0.015984807 -0.03639481 0.007644727
0002e0 5b 40 f2 3c a2 b6 fc 3c 05 b3 04 3d 54 a5 12 bd
       0.029571703 0.030848805 0.03239729 -0.0358022
0002f0 bd 5d 29 3d 78 b5 67 bc 70 b2 28 bd 8b 2e e0 bc
       0.04134916 -0.014142387 -0.041185796 -0.027365943
000300 d5 6e 64 bd 3d 9b 40 bd 02 9c be bc d1 b9 2b 3d
       -0.05576976 -0.047023047 -0.02326775 0.041925255
000310 4a 51 b0 3c 0d 07 37 3d 06 3e fd 3b a2 79 10 3d
       0.021523137 0.04468446 0.007728341 0.035272248
000320 4a e4 e8 bc 00 af 6b 3c ab 4c 8f bc ae 24 89 bc
       -0.02842917 0.014384985 -0.017492613 -0.016741123
000330 99 1f 23 3c 17 3a 41 3d 7e d4 f6 ba 86 62 b0 3b
       0.009956264 0.04717454 -0.0018831638 0.0053828387
000340 8e 71 c8 3c f9 e4 a6 bc be 9a 2a bd 4b b3 11 bd
       0.02446821 -0.020372855 -0.04165148 -0.035571378
000350 a9 79 17 bd 0b b8 05 3d 5b 18 7c 3c db 50 c6 bb
       -0.03698126 0.03264622 0.015386666 -0.006052119
000360 bd 2a 4a bd 33 54 58 3d 6d 8e db bc 0c 15 31 bd
       -0.049357165 0.052814674 -0.026801312 -0.043232962
000370 a6 32 19 3d 53 a0 19 bc e9 55 c3 bc 3d 1c a3 bc
       0.037401818 -0.009376603 -0.023844676 -0.019910926
000380 d7 7d cc 3c 24 93 44 3c f7 8d b3 bc 38 e4 d9 bc
       0.024962349 0.011997972 -0.02191828 -0.026598081
000390 d5 4f 0c 3d 4a 1c ad bc fd b8 56 bc ae 49 a5 ba
       0.03425582 -0.021131653 -0.013105628 -0.0012610459
0003a0 36 9f aa 3b 61 45 f8 bc 8d c4 1c bc 6e 46 2b 3c
       0.0052069677 -0.03030652 -0.009568346 0.010453803
0003b0 6e cd 6b bd b2 07 a8 3b ad 84 d0 bc f0 67 2e 3c
       -0.05756896 0.0051278705 -0.02545389 0.010644898
0003c0 ee 60 92 3b 06 28 29 3d 67 39 1a 3d aa 75 53 bd
       0.0044671213 0.041297935 0.0376524 -0.051625885
0003d0 81 2b 81 3d b2 9a ef 3c e1 1a c9 bb b7 0f 2d bd
       0.06307126 0.02924857 -0.0061372374 -0.042251315
0003e0 69 d3 a2 3c 5b 07 34 bd 2e a2 86 bc 16 59 da 3c
       0.019876199 -0.043952327 -0.016434755 0.026653808
0003f0 f0 c5 23 3d 03 39 01 3b 2c c3 3a 3d b1 69 71 bc
       0.03998369 0.001971782 0.045596287 -0.014734671

out.weight f4 [6, 500]
000000 c2 47 c3 bc 4c 78 d2 bc 75 1e 9a bc ca a1 48 bd
       -0.023837928 -0.025692128 -0.018813351 -0.04898242
000010 5a 98 6c bc 77 c4 ad bc f4 b0 1d bd 69 09 a9 3c
       -0.01444062 -0.021211846 -0.038498834 0.02063437
000020 ba f1 aa bb 8d 65 5f 3b c3 3e 63 3b 2a 5c 28 bd
       -0.0052168043 0.0034087629 0.003467486 -0.04110352
000030 1a 89 ba bc e5 1b ab 3b 45 a6 ea bc 4a ba 3a 3c
       -0.022770453 0.005221831 -0.028643737 0.011396954
000040 5b 05 37 bd 6b ca 1c bb 46 4a a8 3c e9 3a 71 3c
       -0.04468284 -0.0023924361 0.020543229 0.014723518
000050 4b 8e f6 3c be 2b ea 3b 52 c8 da 3a a5 58 b1 bb
       0.030097147 0.0071463278 0.001669178 -0.0054121786
000060 33 1f 1a bd 95 f0 30 bd f0 a3 0e 3d c6 5b 1f bd
       -0.03762741 -0.043198187 0.03482431 -0.03890588
000070 0b 96 3b bd ff cb 44 bd 24 8e 03 3c 1f 95 07 3c
       -0.04579739 -0.04804611 0.008029494 0.008275299
000080 6f 81 16 3d 34 e0 1f bd c4 39 7f 3c a2 8f 10 bc
       0.03674453 -0.039032176 0.015577737 -0.008823307
000090 d9 81 b7 3a 48 ff e6 bc 43 bf 4f 3b 9a 96 ff 3b
       0.001400049 -0.0281979 0.0031699694 0.0077999355
0000a0 21 a9 0c 3d 9c 90 9c 3c 4e 47 0d 3c 98 e5 20 bd
       0.03434098 0.019111924 0.008622957 -0.039281458
0000b0 26 3f a3 bc 54 92 23 bd 06 87 05 3d 9b de 13 39
       -0.019927572 -0.03993447 0.03259947 0.0001410194
0000c0 0c 8b 8f 3c 85 67 8c 3c 15 28 db bc d7 20 34 3b
       0.017522357 0.017139206 -0.026752511 0.0027485394
0000d0 c3 44 77 3c 1d 86 2d bd 7a 8a 32 bd 31 c1 b7 bc
       0.015092078 -0.04236423 -0.043589093 -0.022430988
0000e0 01 34 28 bd 5d 4c 2e bd 1c 86 e5 3c c7 ba 1c 3c
       -0.04106522 -0.042553294 0.02801805 0.009566016
0000f0 e0 eb 11 3d 00 27 82 bc 42 04 08 3d 5d e8 2a bb
       0.03562534 -0.015887737 0.033207186 -0.002607844
000100 6d fa 20 bd 04 55 6b 3c 2a eb af bc 49 7c 55 bc
       -0.039301325 0.014363531 -0.02147444 -0.01303012
000110 2a 3d c2 bb 91 7a 8a bb 96 7b 06 bd c6 f2 15 3c
       -0.0059277015 -0.004226037 -0.032832704 0.00915212
000120 eb 92 bc bb ed ef c0 3c e6 f0 48 bc 34 e2 91 3b
       -0.0057548187 0.023551906 -0.012264466 0.0044520143
000130 68 ca c3 3c 11 e6 96 3c 3c 55 dd 3c 5c f3 2e bc
       0.023900226 0.018420251 0.027018182 -0.010678139
000140 bb 36 41 bd 37 c0 01 3d 0d ad 03 3d 29 15 44 bd
       -0.047171336 0.03167745 0.032147456 -0.047871742
000150 fd bf 0f bd b0 94 bf 3b 70 f8 e0 bc 3d 00 55 bc
       -0.035095204 0.0058465824 -0.027462214 -0.013000545
000160 3d 81 0b bc a9 05 d1 bc 60 71 01 3d f2 88 83 bc
       -0.0085146995 -0.025515394 0.031602263 -0.016056512
000170 b9 df d9 3c 70 23 c9 bc 74 5b 9e 39 5b 2b 10 bd
       0.026595937 -0.02455303 0.00030204246 -0.035197597
000180 bb 56 8c bb 07 48 60 bc b0 47 d7 3c 0c 91 1b bd
       -0.0042828 -0.013689048 0.0262793 -0.037980124
000190 b3 1e 3e bd 07 8f 5b 3c 20 de ae 3c 75 5b e1 bc
       -0.046415996 0.0134008 0.021346152 -0.02750943
0001a0 d4 26 df 3c af bf ef bc 9d b1 2f 3d 67 ea f9 bc
       0.027240194 -0.029266207 0.042893995 -0.03050728
0001b0 a3 09 28 bd 3e 52 92 3c 88 88 50 3d 6e 30 d8 bc
       -0.041024815 0.017861482 0.050911456 -0.02639028
0001c0 74 b1 0f bb b2 48 8d 3b 9a 35 a1 bc d5 5c d8 bc
       -0.0021925839 0.0043116445 -0.01967888 -0.026411453
0001d0 93 40 65 bb 43 96 7d bc 3b 63 32 bd 1b 00 03 bc
       -0.0034981116 -0.01547772 -0.043551665 -0.007995631
0001e0 5b 8f 29 bd 72 6b cf ba 59 03 83 bc 8c e1 2e bc
       -0.04139648 -0.0015824868 -0.015992807 -0.010673892
0001f0 77 54 74 3c bb 94 ea 3a 41 bb ca bc 2e 96 38 3d
       0.014912716 0.0017897108 -0.024747493 0.045065098
000200 3d 1b cb bc 2a 0e 90 3c 03 3b 8b 3c 96 e4 88 ba
       -0.024793262 0.017584879 0.016995912 -0.00104441
000210 4f 14 32 3c 78 97 88 3c dc dd 00 bd 1f 5a 39 3c
       0.0108691 0.016673788 -0.03146158 0.01131299
000220 59 63 eb 3c 21 80 87 3c 67 c6 23 bc 86 c9 e0 bc
       0.028733896 0.016540589 -0.009996033 -0.027439844
000230 f8 03 46 bd dc 17 8e 3b 75 3b 1c bc 75 d4 07 bd
       -0.04834363 0.0043363404 -0.00953566 -0.0331616
000240 34 9c 11 3d ec 2b 31 bd 46 f2 3c bd bc be b0 bc
       0.035549358 -0.043254778 -0.046129487 -0.021575324
000250 dc 8a ff bc 75 5d 3e bb 64 04 fb 3c 60 58 1e bd
       -0.031194143 -0.0029047404 0.030641742 -0.0386585
000260 10 7c 12 3d a8 f2 bd ba 6a 56 19 bc e4 5a f1 3c
       0.035762846 -0.0014491873 -0.009358982 0.029462285
000270 37 53 d6 3c 87 02 79 bc dd dd bb bc 62 2d 69 3d
       0.026162727 -0.0151983565 -0.022932941 0.056928046
000280 e9 1a e7 bc ef f8 e1 3c 0a b5 3f bc 75 7f 9e 3b
       -0.028211074 0.027584521 -0.011700878 0.0048369714
000290 34 40 0d bd cb f3 02 bd 95 c6 14 bd 71 9b c3 bc
       -0.034485057 -0.03197078 -0.036322195 -0.023877831
0002a0 6d 6c fc 3c ac 67 a9 bc c3 2d 6a bb 75 a4 2c bd
       0.03081342 -0.020679317 -0.0035732843 -0.042149026
0002b0 10 72 01 bd a4 07 f4 bc c6 0a fe bc 79 fb 80 3c
       -0.03160292 -0.0297888 -0.031010997 0.015744912
0002c0 fc 41 97 ba e9 40 28 bc 57 51 e0 bc d8 c3 f2 3c
       -0.0011540051 -0.010269382 -0.027382536 0.029634401
0002d0 ab 63 00 3d 9c d5 84 bc 0a 6a fe bc cc 10 82 bc
       0.03134505 -0.016215138 -0.031056423 -0.01587715
0002e0 89 f8 da 3c 46 4f 9e 3c 43 a6 3b bd 94 6f 2f bc
       0.026729839 0.01932491 -0.045812856 -0.010707755
0002f0 4f 4c 98 bb 99 8e fd bc 28 48 db bc 36 f8 04 bd
       -0.0046477686 -0.030951785 -0.026767805 -0.032463275
000300 25 3c e4 3c 27 9b 17 bd e9 cb 40 bd 2e de 35 bd
       0.02786071 -0.0370132 -0.047069464 -0.04440134
000310 c9 18 69 bc 1b 67 f6 3b 0a cd 21 bd 69 89 80 3c
       -0.014227101 0.0075196153 -0.03950218 0.015690522
000320 48 11 cf 3c e4 bc 15 3d 3d e5 bd 3c 21 e0 81 bb
       0.025276795 0.036557093 0.023180598 -0.003963486
000330 ce 7c 90 bc c1 a7 04 bd e3 5a 4c bd e6 bd 9f bb
       -0.017637637 -0.032386545 -0.049891364 -0.0048749326
000340 82 45 b1 bc d9 41 25 3d 9d 7d 9d bb 82 64 b6 3c
       -0.02163959 0.040346 -0.004806234 0.022264723
000350 44 c9 06 3d 9f 23 18 bd 2d a1 d4 3b 0d da c6 3c
       0.032906786 -0.037143346 0.00648894 0.024273897
000360 e5 0a 1e 3d a6 b8 f1 3b ac b7 b6 3c 63 09 32 bc
       0.03858461 0.007376748 0.022304378 -0.010866496
000370 bc 3c cb 3c 72 e9 04 3d 6c eb 86 bc 21 13 06 3d
       0.024809234 0.032449193 -0.01646968 0.032733086
000380 48 64 a7 bb 3e 0b e2 3c e1 54 f2 bc 7b 72 07 3d
       -0.00510839 0.027593251 -0.029581489 0.03306816
000390 4f 4a ef bc 5b de 9e bc cc bd 94 3b 2e 7c ad bc
       -0.029210238 -0.019393137 0.004539227 -0.021177378
0003a0 06 d9 8a bc 71 9e 52 3c bb 58 a6 bc 4e ea 0a 3d
       -0.016949188 0.012855158 -0.020305982 0.033914857
0003b0 69 ae 03 3d ba cf a4 3c b8 80 46 3c 3d fc ba bc
       0.032148752 0.020118583 0.01211565 -0.022825355
0003c0 25 c5 d9 bb b1 a4 e0 bc 99 b1 2a 3a ee 61 19 3d
       -0.006645816 -0.027422281 0.00065114495 0.03744691
0003d0 7c e5 20 bd 58 bf d7 3c 3b f8 b5 ba 33 cc 50 bc
       -0.039281353 0.026336357 -0.0013883183 -0.012743997
0003e0 be 82 d6 3c 99 1a 9d bc 4b 7d 49 ba 9a 3c 06 3d
       0.02618539 -0.019177722 -0.00076862116 0.032772638
0003f0 a9 57 29 bd f4 1d 04 3d b0 a8 41 bc 1b 9a 7f bc
       -0.041343365 0.032255128 -0.011820003 -0.015600706

out.bias f4 [6]
000000 3e 7b 7e bb 13 03 f1 bc f4 25 06 3d 92 dd 4b 3d
       -0.0038830782 -0.029420411 0.03275104 0.049771853
000010 eb 33 3a 3d 4d 05 3f bd
       0.04545967 -0.046635915
