pommerman/resources/firstAgent.pt (torch_old, 6384 bytes, 4 tensors)

hidden.weight f4 [11, 121]
000000 c0 ed f8 3b c4 bf bc 3d 4b b5 5b bd ff e9 7b 3c
       0.0075967014 0.09216264 -0.05363969 0.015375613
000010 f2 4c dc 3c 97 1c a2 bc 60 bd 11 3d bf 4c 94 bc
       0.02689216 -0.019789023 0.035580993 -0.018103002
000020 bc 4d af 3d 3e 3f 42 3d b7 ae 61 3d 77 b1 81 3d
       0.085597485 0.047423594 0.05509826 0.06332677
000030 54 08 81 3d 13 f5 83 3d 63 0f 0d bd 4d 03 02 3d
       0.063004166 0.064432286 -0.034438502 0.03174143
000040 7d 86 fc bb 64 9f 0b bd 0c b8 5a bd 4f cd c1 3d
       -0.007706462 -0.034087554 -0.053398177 0.09462988
000050 0e b5 fc bc 21 96 a6 bd 32 d6 a5 3d f5 f7 4b bd
       -0.030848052 -0.081341036 0.08097495 -0.049797017
000060 c9 0d 93 bd 90 6e 83 bd bb 7b 6f 3d dd b9 65 bc
       -0.07180364 -0.064175725 0.058467608 -0.014021364
000070 79 49 8c bd 71 db 1e bd 02 12 44 bc 7d 21 bb 3d
       -0.06849951 -0.038783494 -0.011967184 0.09137247
000080 95 35 a4 bd 6c e4 86 bd 61 63 b5 bd 0e 99 62 3d
       -0.080180325 -0.06586537 -0.08856846 0.055321746
000090 53 90 86 bd 79 01 a5 3c 59 98 8e bc 59 55 38 bd
       -0.065704964 0.020142304 -0.01740663 -0.04500327
0000a0 fc 22 94 3d 20 dc 8b bd 3c 66 6e bb 5f 0d 27 bc
       0.07233235 -0.06829095 -0.0036376854 -0.010196059
0000b0 50 3d 80 3d 23 48 b4 bc 3c 6c ec 3c 06 c3 d9 3c
       0.062616944 -0.022007054 0.028860204 0.026582252
0000c0 10 51 b0 3c 19 e3 9b 3d 9e ab 8b 3d 64 3f 75 3d
       0.021523029 0.07611675 0.06819843 0.059874907
0000d0 67 32 21 bd 12 c4 9c bd b3 da c0 3d 78 c6 7f bc
       -0.039354708 -0.07654585 0.094167136 -0.0156112835
0000e0 6a 8c 4a bd 9e 98 ce 3d f6 49 8d 3b 13 68 aa bd
       -0.049450316 0.10087703 0.0043117953 -0.08320632
0000f0 c3 36 b8 bd dd 1e 8d bd c3 0b 43 bd 35 a8 96 3d
       -0.0899482 -0.06890652 -0.04761864 0.07356302
000100 67 a9 55 3c 36 7f 78 3d d8 83 3b 3d 71 5e 61 bd
       0.013040877 0.060668193 0.045780033 -0.055021707
000110 c5 74 45 3d 65 67 13 3d eb 0d 0e 3d ad 57 34 bd
       0.048207063 0.035987277 0.034681242 -0.044028927
000120 d8 cf b6 bd 12 f8 86 3d 47 d5 25 3d ea d4 b3 3d
       -0.08926362 0.065902844 0.0404866 0.087808445
000130 c6 92 2b 3d 66 28 90 3c ef a8 e6 3a e0 76 3e bd
       0.04188802 0.017597388 0.0017597954 -0.046500087
000140 bb f7 a5 3d aa 2b a2 bd 80 33 b4 bd 52 c5 97 bd
       0.081038915 -0.079184845 -0.08798885 -0.07410683
000150 3b 67 a9 3d c9 f1 5d 3d 75 fc 45 bd 54 73 5d 3c
       0.08271643 0.054185662 -0.048336465 0.013516266
000160 91 9f 0d 3d d3 c3 12 3d 34 b3 ca 3d ce 79 9a 3d
       0.034576003 0.035831284 0.098974615 0.07542764
000170 b9 0b 5e 3d 9d d4 00 3d 6d 62 9e bd b3 ad 42 3d
       0.0542104 0.031452764 -0.07733617 0.047528934
000180 ad 44 13 3d 69 ef 67 3d 4b f5 7f 3c 4a 5d 0d 3d
       0.035954166 0.056624804 0.015622447 0.034512796
000190 a5 5a 50 3d ec 8d 62 3d 68 44 6b 3d 2b 75 9e bd
       0.050867695 0.05531113 0.057438284 -0.07737192
0001a0 f3 d7 6f 3d 31 b8 39 3d 8b 1d 51 3d 36 f5 5f bd
       0.058555555 0.045341674 0.051053565 -0.05467721
0001b0 c6 ea 6b 3d fb f4 b3 3b c7 ab 49 bd 9e 88 a2 bd
       0.057596944 0.0054918504 -0.049236085 -0.07936214
0001c0 61 42 83 3d 52 63 d1 b9 e2 58 9a bc e9 b7 7e bc
       0.06409145 -0.00039937586 -0.01884121 -0.015546777
0001d0 43 27 af bd 11 1a 57 bd 82 e4 d6 b9 62 b6 96 3d
       -0.085524105 -0.052515093 -0.00040987512 0.073590055
0001e0 04 f9 04 3d 74 8f ee 3b 48 98 36 bd 44 2c a7 bd
       0.032464042 0.0072802845 -0.04457882 -0.0816274
0001f0 e3 c6 30 bd 7f 69 ad 3d 22 9c 01 3d e4 5b ae bd
       -0.043158423 0.084673874 0.03164304 -0.085136205
000200 de 87 64 3b f1 23 b4 3d c6 98 4e 3a f7 7c 83 3c
       0.0034871022 0.08795918 0.00078810414 0.016050799
000210 6a 2f 8a 3d 66 91 77 bc c2 7c 85 3d ef 3d e3 3c
       0.06747325 -0.015110349 0.06517936 0.027739493
000220 9a db 0b 3d 85 67 3b bd 7c d6 b5 bd 49 a1 aa bd
       0.034144975 -0.04575302 -0.088788 -0.08331544
000230 a2 a7 c0 3d 1e bb da 3c be cd 54 bb 9f 80 7b bb
       0.094069734 0.026700553 -0.0032471265 -0.0038376225
000240 dd e2 7c bd 72 3b 3a 3d b7 e0 ec 3c e7 67 9a 3c
       -0.06173979 0.045466848 0.028915746 0.018848373
000250 a4 dc 66 bd f5 88 99 bd 36 cc 6b 3c 74 dc 61 3d
       -0.056362763 -0.074968256 0.014391949 0.05514188
000260 9a ef 30 3c 94 73 7f 3c 68 a8 b3 bd 12 fa b5 bd
       0.010799313 0.015591521 -0.08772355 -0.08885588
000270 fa 0e 93 3c 7e 02 dc 3c 1f ae 94 ba bc bd 98 3d
       0.017951477 0.026856657 -0.0011343396 0.07458064
000280 67 ee e1 bc 02 d6 8b 3c 8f a9 5c bd 07 5c 26 3d
       -0.0275795 0.01706982 -0.05387264 0.040615108
000290 1d 63 3d 3d f0 d9 b2 3b 7f 91 12 3d 81 04 49 bc
       0.0462371 0.005458109 0.035783287 -0.01226914
0002a0 7d 01 94 3d 92 00 7c ba 99 a3 96 3c c2 54 88 3c
       0.07226846 -0.0009613122 0.018388556 0.016641978
0002b0 e7 0b 72 3d db 47 3c bc 4e be 58 3c 2f d9 1f 3d
       0.059093382 -0.011491741 0.013228966 0.03902548
0002c0 64 6b 26 3b cf b5 a7 bc 20 eb 0d 3d b6 5d a7 bd
       0.00253936 -0.020472435 0.03464806 -0.08172171
0002d0 10 09 01 3d 48 49 3d bc 61 5f 36 3d bb f7 52 bd
       0.031502783 -0.011553116 0.044524554 -0.051505785
0002e0 8a b8 ca 3c 85 75 a9 3d b7 62 a2 bc ef 20 89 3c
       0.024746198 0.08274368 -0.019822462 0.016739337
0002f0 7c d3 9a bd ca 3d 4d bd ed 03 3d 3c c3 ab c0 3c
       -0.07559869 -0.050107755 0.0115365805 0.023519402
000300 21 cc 41 bd d5 b7 32 bd b5 df 72 3d 86 84 56 3c
       -0.047313813 -0.043632347 0.059295375 0.0130931195
000310 cc 45 9e bb d5 ae f2 bc b3 57 ab bd 5f de 0e 3d
       -0.004830098 -0.029624382 -0.08366337 0.03488004
000320 4f 94 db 3c 5a 6e a4 3d 66 c3 7c 3d 62 00 dd bb
       0.026804117 0.080288604 0.061709784 -0.0067444304
000330 70 f0 b7 bb d2 ec 36 bd c1 cb 35 3d 86 5f e2 3c
       -0.005613379 -0.044659443 0.044383768 0.02763344
000340 14 2e 77 bc b4 4d 8e 3d 1c 81 cf bc 95 03 6b 3d
       -0.0150866695 0.069484144 -0.025330119 0.057376463
000350 69 a6 06 3d 67 fc bd bd 46 70 a3 3c ee 76 53 3d
       0.032873545 -0.092766576 0.019950997 0.051627092
000360 e4 3d b1 bd 52 b3 47 3d 77 10 a7 bd 42 ca 85 bd
       -0.08654383 0.048754998 -0.08157437 -0.06532718
000370 f3 f3 b2 bd 58 42 0e 3d 1b 16 a8 3d 2a e5 d8 3c
       -0.08737936 0.03473124 0.08207341 0.026476461
000380 e2 c6 9a bd 62 e3 7d bd a9 4a f1 bc ee 7d 45 bd
       -0.07557465 -0.061984427 -0.029454546 -0.0482158
000390 3a 78 a7 bd 5e 7c 8b 3d 9b 5b a4 3d 3a 20 23 bc
       -0.08177228 0.068108305 0.08025285 -0.009956414
0003a0 3f ff 74 bd 55 06 8a 3d c3 da 76 bc fd 01 01 3d
       -0.059813734 0.06739489 -0.015066805 0.031496037
0003b0 79 b1 8b 3d 2b 96 17 3d 4d 4a 6c bd 5b 4d a6 bb
       0.068209596 0.037008446 -0.057688046 -0.0050751395
0003c0 9d 1e bc 3d 16 83 9e bd 3a ad 06 bd 48 b0 71 bd
       0.091855265 -0.077398464 -0.032880045 -0.059006006
0003d0 e1 db 89 3d 4d e1 06 3d 38 61 22 3d 39 b2 9b 3d
       0.06731392 0.032929707 0.039643496 0.07602353
0003e0 97 aa 23 bd 2f 80 60 3d 6a 1e b9 3c 40 7c 95 bd
       -0.03995761 0.054809745 0.02259751 -0.072990894
0003f0 5b 0a ff bc 70 61 99 bd 7f ec 54 3d 96 a7 45 3d
       -0.031132868 -0.07489288 0.051983353 0.048255526

hidden.bias f4 [11]
000000 b8 dc ba 3c 76 49 8a 3d 3d f3 d9 3c cb 44 9b bd
       0.022810325 0.06752293 0.026605243 -0.075814806
000010 5e e1 f4 3c 42 8c 22 3b 24 73 94 3c f0 a5 96 3d
       0.02989262 0.0024802838 0.01812131 0.07355869
000020 cb 95 a1 bd 83 08 34 3d 87 8b 64 3c
       -0.07889899 0.04395343 0.013949282

out.weight f4 [6, 11]
000000 40 55 0a be 32 27 fc bd b5 41 d4 3d 65 d6 2b 3e
       -0.13509083 -0.123121634 0.10364095 0.16781004
000010 4c 09 1c bd 75 63 e8 bd 01 17 8d 3e 6a b6 36 be
       -0.038094804 -0.11347095 0.27556613 -0.17843023
000020 74 84 c9 3c 7e 11 90 3e 1a 4b d1 bd aa 81 c5 bb
       0.024599291 0.28138345 -0.102194026 -0.00602742
000030 c0 70 f7 bd c0 a0 b7 bd 14 a9 80 be 39 47 7a 3d
       -0.12082052 -0.089662075 -0.25128996 0.06110308
000040 9a d2 c1 3c ec ea 8f be 16 6a 6a 3e 25 f4 1a bd
       0.023659993 -0.2810892 0.22892031 -0.03783049
000050 28 08 44 be 8c 2f 2e bd 59 32 51 3e 5f 6f 26 3d
       -0.19143736 -0.042525813 0.20429362 0.040633556
000060 0c 8d a0 bd 51 8a 61 3e 9f 70 26 3c a0 62 22 be
       -0.078394026 0.2202542 0.010158687 -0.15857935
000070 61 29 73 be 99 88 59 3e a8 be 67 be ed d0 98 bd
       -0.23746254 0.21243514 -0.22631323 -0.074617244
000080 13 b1 85 3d e7 c2 07 bd 94 85 75 3e 63 cc 46 be
       0.06527915 -0.033144858 0.23976737 -0.19413905
000090 cd fd 04 be ae 72 42 be 4c b8 16 3e 50 c3 c6 bd
       -0.12987442 -0.1898906 0.14718741 -0.09705222
0000a0 c9 95 9e 3c 31 e9 42 3d 8d 1e 33 3e 9c 6a 3b 3e
       0.019358533 0.04758567 0.17492123 0.18302387
0000b0 d9 22 67 be 61 88 dc bd e7 ab e1 bc 5f 29 39 3e
       -0.22571887 -0.107682 -0.02754779 0.18082188
0000c0 58 f2 33 be 6b 8f 86 3e b0 71 03 be bc 51 30 be
       -0.17572916 0.26281294 -0.12836337 -0.17218679
0000d0 b1 24 a3 3d a8 76 21 be e3 1f 17 3e 11 36 76 bc
       0.07965983 -0.1576792 0.14758258 -0.015027539
0000e0 5c 06 7d 3e 7a 9f 08 3e 48 28 50 3e 9e 93 26 3e
       0.24709457 0.13342085 0.20327866 0.16267249
0000f0 0d bc 8e 3d 3d 36 37 3e 27 e3 c9 3d e1 f7 8b be
       0.069694616 0.17891784 0.09857779 -0.27337554
000100 1a a8 18 3e 39 5f 8c 3d
       0.14907876 0.068541

out.bias f4 [6]
000000 50 f7 22 be e4 30 64 be 91 19 cd 3d 26 1b 46 be
       -0.15914655 -0.22284275 0.10014642 -0.19346294
000010 b7 be 4d 3d 62 07 1e be
       0.050230708 -0.15432504
