pommerman/resources/q_agent_2018-11-14.pt (torch_old, 758810 bytes, 4 tensors)

hidden.weight f4 [500, 372]
000000 ad 9a 46 bd e7 f9 0d 3c cf 85 01 3d 01 3f cc 3c
       -0.048487354 0.008665538 0.03162175 0.024932386
000010 38 79 08 3d b6 f6 05 3d bc 91 8a bd 81 68 f2 bc
       0.03331873 0.032705985 -0.06766078 -0.029590847
000020 44 02 49 bd ef 6e 02 bc 80 c9 8b bd 3c 39 98 bd
       -0.049074426 -0.007961019 -0.068255424 -0.074327916
000030 97 3a 62 bd 7e 0a de 3c 50 9b e5 bc a7 be 3b 3c
       -0.055231657 0.027104612 -0.02802816 0.011459029
000040 e1 70 98 3d 70 07 42 bd 0d 5e cc 3c 8b fa 3e bd
       0.07443405 -0.047370374 0.02494719 -0.046625655
000050 1d aa 2b 3d a0 a1 21 3c 69 a5 84 bd 9e 7b 0c 3b
       0.04191028 0.009865195 -0.06476862 0.0021435986
000060 c0 97 80 3c e5 15 d2 bc 65 54 a1 bd d8 28 b3 bc
       0.01569736 -0.025645206 -0.07877425 -0.021870062
000070 63 ad 7c bd 59 e6 45 bc 36 7a 12 3d ab 85 88 bd
       -0.061688792 -0.012078845 0.03576108 -0.0666612
000080 68 3a 80 bb f1 1b 40 3d ee ed 82 bd a6 a9 c4 bc
       -0.0039132126 0.046901647 -0.06393038 -0.024006676
000090 b2 a4 89 3c d1 b1 54 bc 67 b6 52 bd 3e 11 9d bb
       0.016802166 -0.012981848 -0.051443484 -0.004793315
0000a0 0f 8f 90 3c 36 ed e7 3a 90 c8 5b bd 8d a1 3f 3c
       0.01764634 0.0017694596 -0.05365807 0.011696232
0000b0 e2 30 5e bd 77 8a 06 3d 72 b7 e9 bd 2f 9c 8d bd
       -0.054245837 0.032846894 -0.114119425 -0.06914555
0000c0 9e 60 41 bd 99 58 98 bd c4 66 40 3c f5 b1 08 bd
       -0.047211282 -0.07438774 0.011743251 -0.033372838
0000d0 7b 1e 89 bd bb 6a 04 bd 50 46 64 bc c3 1a 8f 3b
       -0.06695267 -0.03232835 -0.013932779 0.004367204
0000e0 24 fb aa 3c f9 43 52 bd 39 c2 73 bc b0 cf d8 3c
       0.020871706 -0.051334355 -0.014877849 0.02646622
0000f0 16 38 f5 3c 95 ce 44 bc f3 ab 70 3c 09 6e 20 bd
       0.02993397 -0.012012144 0.014689433 -0.039167438
000100 ce bb 8f 3d fe 14 3a bd af 19 5d 3c d4 ec ef bc
       0.07018243 -0.045430176 0.013494893 -0.029287733
000110 c8 6f 1d bd 34 50 21 bd 52 8d 78 3b 73 a7 ed 3c
       -0.03843668 -0.03938313 0.003792603 0.02901051
000120 33 6c c7 3c 14 17 19 3d f4 9a 2c bd 98 d9 c9 3c
       0.024343586 0.037375525 -0.042139962 0.02463989
000130 a1 bb 85 bc 91 21 99 3c e0 52 0f bd ac 6f c5 bb
       -0.01632482 0.018692764 -0.034991145 -0.006025275
000140 a4 80 81 bd 60 80 f3 ba 02 f5 d9 bc cd f2 64 bd
       -0.063233644 -0.0018577687 -0.026606087 -0.055895615
000150 a9 27 26 bd 01 f8 52 bd ef 6d 95 3b 1f 19 80 bd
       -0.040565167 -0.051506046 0.0045602242 -0.062547915
000160 e1 7a 23 bd 82 a9 c7 bb 5e b8 f4 bd cb a4 84 bd
       -0.03991211 -0.006093205 -0.11949228 -0.06476744
000170 99 db 8e 3b 8f 17 0c bd 05 a6 04 3d 88 bc 86 3c
       0.004359674 -0.034202155 0.03238489 0.01644732
000180 7b 53 cc bb fe 05 75 bd 4e ba 05 bd a4 23 68 bd
       -0.0062355376 -0.059820168 -0.032648377 -0.056674615
000190 c6 9f 7c bd 5e 8d 79 bd 88 2b 36 bd 3b 7a 51 bc
       -0.06167581 -0.060925834 -0.04447511 -0.01278549
0001a0 2f 75 c8 bc fd 01 99 3c ed 18 19 bd 9f 51 59 bd
       -0.02446994 0.018677706 -0.037377287 -0.053056356
0001b0 99 0a 7d bd a4 30 a1 3c 33 5b cc bc 7b d9 a9 bd
       -0.061777685 0.019676514 -0.02494583 -0.08293434
0001c0 f2 66 a1 bc a0 15 f5 3c 06 cc e1 3b 40 93 88 bc
       -0.019702408 0.029917538 0.0068907766 -0.016671777
0001d0 e3 8a 16 bd 2b 29 a6 3c a7 5d 0b 3d ab c4 66 bd
       -0.036753546 0.020283302 0.03402486 -0.0563399
0001e0 5e 5e f8 bc 64 1b 9c bd 3a b6 c6 bc 5a 84 98 bd
       -0.030318435 -0.07622412 -0.024256814 -0.07447119
0001f0 d8 a7 4f bc 30 2a 46 3b 45 da 81 bd c4 3a a5 3c
       -0.012674294 0.0030237548 -0.0634046 0.020169623
000200 97 67 7a bd 8d 97 06 bd 17 1f e9 bc 66 6b 97 3d
       -0.061133947 -0.032859374 -0.028457208 0.073935315
000210 e8 ee 51 bd 76 f9 ae bc db 84 83 bd 62 7e a1 bc
       -0.05125323 -0.021359187 -0.064218245 -0.019713584
000220 66 5f 04 bd d8 51 bd 3c 74 78 90 3d ed 6e 6c bd
       -0.03231754 0.023110315 0.070542246 -0.057722975
000230 c9 0f 15 bd f2 53 d3 bc d1 01 7f bd f0 a8 31 bc
       -0.036392007 -0.025796864 -0.06225759 -0.0108435005
000240 d9 e5 ae bc 2c 34 db 3c 9a 4c 4b 3d fc 1a ec 3b
       -0.021349834 0.026758276 0.0496336 0.007205365
000250 0c 97 10 bd 4e 9a 1c bd 5a 9c 89 3c 85 09 28 3d
       -0.0353003 -0.038233094 0.016798187 0.041024704
000260 4e d2 ae 3c 87 64 a4 3d b1 a8 15 bd ec 3c 76 bc
       0.021340515 0.080269866 -0.03653783 -0.015029173
000270 c3 2b 22 bd 54 01 8d bc d7 81 73 bd 98 aa ce 3b
       -0.039592516 -0.017212547 -0.059449997 0.0063069575
000280 81 c3 23 3d 70 da 95 39 dd 16 9f bd 11 32 c0 bd
       0.03998137 0.00028582243 -0.07768033 -0.093845494
000290 29 bd 3b bc 85 f8 3b bd 9b e6 f9 bc a8 1b 5f bd
       -0.0114586735 -0.045891304 -0.03050547 -0.054469734
0002a0 90 10 c2 bb c1 6e 15 3c 03 9e d3 3b e1 9b b5 bd
       -0.0059223846 0.009120644 0.0064580454 -0.08867622
0002b0 8a 0c 57 bd cf b8 31 bd 6e 5a 11 bc 01 68 19 3d
       -0.052502193 -0.043389138 -0.008871658 0.0374527
0002c0 9f 68 d9 bc 80 13 e6 3a ec 97 13 3c 20 47 a2 bb
       -0.026539145 0.0017553419 0.009008389 -0.0049523264
0002d0 4e 1d e0 bc ce c0 f2 3c f8 8b 94 bc b0 c2 34 3d
       -0.027357724 0.029632952 -0.018133149 0.04413098
0002e0 6f 79 14 3d bf 8d 8d bd d2 8a 76 bd d4 75 a1 bc
       0.03624862 -0.069118015 -0.060190983 -0.019709505
0002f0 3c f8 62 bd 78 c2 d5 bc 18 39 f6 3b 4f f8 79 bd
       -0.055412516 -0.026093706 0.0075141303 -0.06102782
000300 ca 26 a2 bd 4d 33 66 bd 37 3b e8 bc 0d 39 9f bd
       -0.07917555 -0.056201268 -0.028348548 -0.077745534
000310 04 46 2b bc 11 78 29 bd c8 9c 09 bd 44 00 30 bd
       -0.010453705 -0.04137427 -0.033596784 -0.042969003
000320 bc ae 29 bd 9c a7 ce bb 84 1b 0d bd aa e5 a0 bd
       -0.041426405 -0.0063066017 -0.03445007 -0.07856305
000330 b8 2c 1c 38 c8 73 12 bb 12 91 53 bd 0c 49 26 bc
       3.7234946e-05 -0.0022346843 -0.05165202 -0.010149252
000340 a0 35 bb bc 42 98 51 bd ed 7c 68 3d 74 d1 9c 3b
       -0.022852719 -0.051170595 0.056759764 0.004785711
000350 38 62 99 bb e8 05 3f bd 44 78 28 bc 64 f9 83 bd
       -0.004680898 -0.046636492 -0.01028258 -0.06444052
000360 87 67 2d 3d 78 8d 83 3b 58 6f 8e bd a8 e6 10 3d
       0.04233506 0.004014667 -0.06954831 0.03537622
000370 7f 42 14 3c fb c8 24 3d 90 79 94 3a 33 fa 00 bd
       0.009049057 0.040230732 0.0011327732 -0.03148861
000380 0d 54 ae bd 65 25 03 bd 93 ce f9 bc e8 f7 15 3c
       -0.08512125 -0.032018084 -0.03049401 0.009153344
000390 04 a3 52 bd 21 18 a6 bd 54 a4 46 3b fd 13 a0 3b
       -0.051424995 -0.08110071 0.003031035 0.0048851953
0003a0 40 94 57 bd f9 2a 2a bd d7 86 0f bd 38 b3 1d 3c
       -0.052631617 -0.04154489 -0.035040703 0.009625249
0003b0 2f 8c 8b bd 56 d7 9d bd f4 8b 98 3c e2 57 62 3d
       -0.06813847 -0.07707088 0.018621422 0.055259593
0003c0 80 e9 68 3a 40 5c b9 3c e1 ae 24 3c 00 8c 24 3a
       0.0008884892 0.022626996 0.01005146 0.0006276965
0003d0 90 02 bb bb bc 45 68 bb 76 11 0b bd 23 f9 87 bd
       -0.0057070926 -0.0035441956 -0.0339522 -0.06639316
0003e0 e0 37 a4 3b d3 f3 ec bc 66 5b 14 3b cd 2c 5e bc
       0.0050115436 -0.028924858 0.0022637486 -0.013560486
0003f0 e2 37 12 3d ba 3e 46 3d 28 ce 64 bc 68 49 ef bc
       0.035697825 0.048399664 -0.013965167 -0.029209808

hidden.bias f4 [500]
000000 2c e1 30 bd a4 a0 3d bc 3d d1 22 bd 3d 5d 59 bd
       -0.04318349 -0.011573944 -0.039750326 -0.053067435
000010 17 05 e5 bc 00 04 73 be 51 1e 9e bd 4b fc 80 be
       -0.027956529 -0.23731995 -0.07720626 -0.25192484
000020 ce 03 61 bd 90 dd 12 3d bf d0 3c bd 4d e4 28 bc
       -0.05493527 0.03585583 -0.046097513 -0.010308337
000030 25 6f 41 bc d5 96 be bd 34 69 16 bd bb 89 1a bc
       -0.011806284 -0.09306113 -0.036721423 -0.009432252
000040 5b 6c 1a be 44 0e b1 3c d1 90 5d bd 77 cf 88 bd
       -0.15080397 0.021613248 -0.054093186 -0.06680196
000050 26 ca 74 bd e0 c2 47 be c4 9c d7 3c e4 98 8a bd
       -0.059763096 -0.19507933 0.026319869 -0.06767443
000060 9c e2 30 be 6d 6b 91 bd 68 6e a4 bd 2e 2d 5d bd
       -0.17273945 -0.07100568 -0.08028871 -0.053998165
000070 78 57 93 bd 17 98 36 bd b1 86 73 ba ff 09 80 3b
       -0.07194418 -0.044578638 -0.0009289785 0.0039074416
000080 9f 7f 5c bd e6 c6 13 bd 29 4d 46 3c 32 62 8c bd
       -0.053832646 -0.036078356 0.012103357 -0.06854667
000090 c6 3a 71 bd 8a f1 a6 bc 2f 68 54 bd 7f 3c fa bc
       -0.05889394 -0.020378847 -0.05185717 -0.030546425
0000a0 7e 76 32 3c b5 67 61 bd 1c 32 91 bd 25 bd 19 bd
       0.010892509 -0.055030543 -0.07089636 -0.037533898
0000b0 08 5b a6 bd 90 09 3e bd d5 be 03 bd 6b 9a f5 3c
       -0.081228316 -0.04639584 -0.032164413 0.029980859
0000c0 33 e9 98 bd cd b3 87 bd fe 40 da bc 48 b0 fe bc
       -0.07466354 -0.06626091 -0.026642319 -0.031089917
0000d0 55 c2 16 be 6d cf 02 bd 74 3b 57 bd b2 ff 62 3c
       -0.1472257 -0.031936098 -0.052546933 0.013854908
0000e0 40 cd 94 bd 33 1d d8 3c ed 03 b3 bc 5b 25 e1 bb
       -0.07265711 0.02638111 -0.021852458 -0.006870908
0000f0 57 04 9b bc 72 08 fa bc 06 74 a7 bd ee 66 90 bd
       -0.018922968 -0.030521605 -0.081764266 -0.07050882
000100 8f 3a 81 bb 80 2d da bb f2 8b e3 bc 6d ec ad be
       -0.0039437483 -0.006658256 -0.027776692 -0.3396944
000110 78 a6 a9 bd cd 8b eb 3b 04 87 c3 3b e9 7c 78 bd
       -0.082837045 0.0071882964 0.005967023 -0.060666
000120 08 10 48 be 69 ed 25 3c 6b b0 d9 bc 49 2f b9 bc
       -0.19537365 0.010127404 -0.02657338 -0.022605555
000130 f2 f4 21 bd a4 57 45 bd ec 25 d5 bd 42 7c 3b be
       -0.03954024 -0.048179284 -0.10407624 -0.1830912
000140 73 1e 7e bd b8 ff 1b 3c bb 3c ef bc 52 7f 82 bd
       -0.062040757 0.009521417 -0.029203763 -0.06371941
000150 21 2d 11 be b8 99 14 bd a2 87 06 be 1e f3 23 bd
       -0.14177372 -0.03627941 -0.13137677 -0.040026776
000160 02 80 cf bd d5 c4 aa bd 70 d6 30 bd 39 39 bb bc
       -0.101318374 -0.08338324 -0.043173254 -0.022854434
000170 c2 8b 35 bc b6 e5 04 3c 9b d8 33 bc f4 2a 86 bd
       -0.011080684 0.008111408 -0.010976936 -0.065511614
000180 a9 34 50 bd ed 66 23 be bd 65 b7 3c a5 b5 8c 3b
       -0.05083147 -0.15957232 0.02238738 0.0042941147
000190 5a 90 04 bd 0c e5 98 bd 76 d1 fa bc 80 43 6d bd
       -0.032364227 -0.07465562 -0.030617457 -0.0579257
0001a0 2b 4d 8e bd f1 da ab bc f3 08 13 be 66 19 9a be
       -0.06948312 -0.020978423 -0.14358883 -0.30097502
0001b0 ff 42 8d bd ba 2d 94 bd 48 b1 8d bd e5 1a b2 3b
       -0.06897544 -0.07235284 -0.06918579 0.005435335
0001c0 52 ef 23 be 13 b0 84 bd 42 27 81 bc 10 e1 a6 bd
       -0.16009262 -0.06478896 -0.01576579 -0.08148396
0001d0 15 ef 6e 3c 74 44 41 bd dd 55 04 bc 2a 94 3a bd
       0.014583369 -0.047184423 -0.008077112 -0.045551457
0001e0 57 5d 46 be 54 00 9a bd 3e 99 c5 3c 6b b6 70 bc
       -0.19371544 -0.07519594 0.024120923 -0.014691929
0001f0 e6 82 c8 bc af 03 e7 3c fd c1 83 bc 05 99 89 bd
       -0.02447648 0.028199999 -0.016083712 -0.06718639
000200 74 87 58 bc 28 b4 77 bd d4 f7 20 3a 90 01 29 3c
       -0.013215888 -0.060474545 0.0006140445 0.010315314
000210 3b be 0e 3c 51 9f ef bd b8 d2 8f bd 1c 86 8a bd
       0.008712347 -0.11700309 -0.07022613 -0.067638606
000220 ca 09 2f 3c 15 fa df bc 79 45 51 be 58 15 70 bd
       0.010683486 -0.027340928 -0.20436658 -0.058614105
000230 b4 97 15 be 5e 78 f4 bc 33 1b 84 bd 80 54 a8 bd
       -0.14608651 -0.029842552 -0.064505 -0.08219242
000240 77 f0 57 bb 7f 53 c2 bc 8b 89 08 bc e4 4d 0f bd
       -0.0032949725 -0.023721455 -0.008333574 -0.03498639
000250 d9 47 d4 bc ec eb 9e bd fd ad 4f 3c 70 db b4 bd
       -0.025913166 -0.07759842 0.012675759 -0.08830917
000260 22 8e 63 bd 84 fd 85 3c 05 42 5c bd c3 fc 7d bc
       -0.05555547 0.016356237 -0.0537739 -0.015502158
000270 45 59 78 bd 63 cc 8a bc cd 4f 5a bc 7f 80 e7 bc
       -0.06063201 -0.016943162 -0.01332469 -0.028259514
000280 ee 25 92 bd 78 ef 44 bd 89 23 4f bc 4b 31 a2 bd
       -0.07136141 -0.048079938 -0.01264275 -0.07919558
000290 c7 ba 27 be 7c c0 0f bc 4d 98 93 bd 1f 9a 39 bd
       -0.16379844 -0.008773919 -0.072067834 -0.045312997
0002a0 e7 ad 89 bd 9d eb 97 bd 27 25 21 be d5 ae 91 bd
       -0.06722622 -0.074179865 -0.15736829 -0.07113425
0002b0 6d d6 81 bb 5f c7 2f 3c aa 8e 46 be bb 59 3b bc
       -0.003962329 0.010728686 -0.1939036 -0.011434968
0002c0 24 ce 51 be ed a6 5f bc 39 65 68 3c 9d 7b ef bc
       -0.20488793 -0.013650638 0.01418429 -0.029233748
0002d0 bb 67 5e bd 44 0b a8 bb 1f ee ac bd 17 b6 5a bd
       -0.054298144 -0.005128296 -0.084438555 -0.05339631
0002e0 43 93 70 bd 67 a6 6d bd 27 85 6b bd ca 59 35 be
       -0.05873419 -0.05802002 -0.05750003 -0.17710033
0002f0 78 82 8c bd 03 63 3d bd 84 93 44 bd 5a 25 33 be
       -0.068608224 -0.046237003 -0.047992244 -0.17494717
000300 5d 6a fe 3c 36 1e 5d bd b9 17 e6 bc e1 c1 e7 3a
       0.031056577 -0.05398389 -0.028087484 0.0017681682
000310 12 38 9f bd 50 30 45 bd 34 60 47 bd 5d 01 94 bd
       -0.077743664 -0.048141778 -0.04867573 -0.072268225
000320 f6 0a a1 bd 42 6e 00 bc d3 a6 e7 bb fa 58 aa bb
       -0.07863419 -0.0078387875 -0.0070694475 -0.005198595
000330 4e dc 06 bd dc 3a 1b bd 15 0a 1e bd 9d 34 16 3c
       -0.032924943 -0.03789793 -0.038583834 0.009167817
000340 60 87 b2 bd 1e 30 33 be 1e ef ae bd 6a d0 0a 3c
       -0.08717227 -0.17498824 -0.08541702 0.008472541
000350 42 4b 89 bd 9e 24 f6 bc 0f 3c b3 bc b6 83 29 be
       -0.067038074 -0.030046757 -0.021879224 -0.1655415
000360 4f 48 e0 bb a0 21 7c bd 9c 0e 91 bd 62 27 e2 bc
       -0.0068445574 -0.061555505 -0.07082865 -0.02760667
000370 d6 e2 53 bd 7f 8a 1f bd 9c d8 c6 bc e9 88 9b bd
       -0.05173 -0.03895044 -0.02427321 -0.07594473
000380 1f 05 b2 bc 79 90 93 bc 14 e0 63 bc f2 cb 21 3b
       -0.021730958 -0.018013226 -0.013908405 0.0024688211
000390 1d f3 9f bd 60 cd 58 bc 4a 44 a7 bd e2 bd fc bd
       -0.07810042 -0.013232559 -0.08167322 -0.12340905
0003a0 60 3b 9e 3b fa d2 23 bd 8b 07 b6 bc e2 c7 5f bd
       0.0048288554 -0.039996125 -0.022220394 -0.054633982
0003b0 0e 0b a2 bd 85 b8 85 bd a9 95 db 3c e5 ac 10 bc
       -0.07912265 -0.06529335 0.026804762 -0.008830284
0003c0 bf 5d e7 bd c4 3b 3a bd 67 45 98 bc 2f b8 e1 bd
       -0.112971775 -0.045467153 -0.018587781 -0.11021458
0003d0 37 3e 2b bd f1 7f 4d bd a3 8c 8a 3c 5f 54 89 37
       -0.04180738 -0.050170843 0.016912764 1.6370961e-05
0003e0 40 f2 f0 bc d4 c1 01 3d b4 c6 86 3b 7f 44 56 bb
       -0.029412389 0.03167899 0.0041130427 -0.0032694635
0003f0 56 5d 98 bd d3 a3 2f bd e9 c5 e9 bb 8d 39 59 bd
       -0.074396774 -0.042880844 -0.0071341884 -0.0530334

out.weight f4 [6, 500]
000000 f2 7b 45 bc 23 8a e3 3b b8 5b 6e bc d0 01 5e bc
       -0.012053477 0.0069439574 -0.014548235 -0.013550237
000010 10 e2 32 bc 59 d7 1f be f9 b5 56 bd 5c 87 29 3d
       -0.010918155 -0.15609492 -0.052419636 0.041388854
000020 4e a9 1c bb a1 7d a4 3c 5d c0 98 bc 93 19 09 bd
       -0.0023904624 0.020079436 -0.018646413 -0.033471655
000030 dd 42 5c bc b7 59 0e be 71 56 de 3b d5 4b b7 bb
       -0.013443676 -0.13901411 0.006785207 -0.0055937567
000040 cb 74 24 be 8b be 17 3c 1a b3 f6 bc 01 28 45 bd
       -0.16060178 0.009261738 -0.0301147 -0.048133854
000050 8a 12 3e 3f 8e 79 53 bc d1 20 0c 3c 84 b0 bf bc
       0.7424704 -0.012907399 0.008552746 -0.023399599
000060 5f 18 1b 3c 56 b3 5c 3c 7a 05 19 bb 01 7c 11 3c
       0.00946626 0.013470491 -0.0023349212 0.0088796625
000070 14 66 c8 bc aa b2 1f 3c c3 31 3b bc f9 0b f5 b9
       -0.024462737 0.009747187 -0.011425438 -0.00046738962
000080 a7 21 d4 bb 99 9a e4 ba 75 f3 b8 bb a4 15 7f bb
       -0.0064737382 -0.0017441093 -0.0056442567 -0.003892281
000090 40 51 d0 3c 94 90 41 3c fc 58 1e bd 4e 11 c0 bc
       0.025429368 0.011814255 -0.03865908 -0.023445752
0000a0 60 88 89 ba 82 b4 02 3d 09 46 53 3c 43 ab bb 3b
       -0.0010492913 0.031910427 0.012895116 0.005727203
0000b0 af a8 78 3a 6b 74 6e 3c 83 af d7 bc 06 91 88 3c
       0.0009485585 0.014554123 -0.026328808 0.016670715
0000c0 4f f3 36 bb dd 23 61 3d 98 b8 2d 3c 84 08 8e 3b
       -0.002791602 0.054965843 0.010603093 0.0043345112
0000d0 96 2c 7f 3e fc 36 07 bc 8c 82 51 b9 94 f2 96 3c
       0.24919352 -0.008252855 -0.00019980426 0.018426217
0000e0 12 70 d2 bc 11 dd a8 3b e4 dd 93 bc d7 fe c9 3c
       -0.025688205 0.0051533063 -0.018050142 0.02465765
0000f0 99 0e 64 bc d9 74 52 bc 71 d6 71 bd 4f d3 04 3c
       -0.013919496 -0.012845241 -0.059042398 0.0081070205
000100 b5 17 31 bc cc 92 3d 3c 2c e8 ce ba f2 ba 05 3f
       -0.010808875 0.011570644 -0.0015785745 0.5223838
000110 40 50 b2 3d 46 79 2b bb f3 92 73 bc a6 61 77 bd
       0.08706713 -0.0026164814 -0.014866578 -0.06039586
000120 4c b9 3f 3d e9 a4 a7 bc 49 dd f2 bb 00 13 e0 3c
       0.046807572 -0.020464377 -0.007411633 0.02735281
000130 04 48 e3 bc 05 80 78 3b 8c 89 df 3b 39 b3 61 be
       -0.0277443 0.0037918102 0.006821817 -0.22041024
000140 ab 9a 9f bc 0b 74 a1 bc 49 58 a9 3b 23 70 0b 3c
       -0.019482931 -0.019708654 0.005167995 0.008510622
000150 ad f0 bf bd 2f f3 c3 bc f8 9b 65 3c 5e 0b b8 3c
       -0.09372077 -0.02391967 0.014014237 0.022466358
000160 0b d3 04 3e 20 50 91 bc 4e 9b 57 bc 23 a3 ce bc
       0.12971132 -0.017738402 -0.013159586 -0.025224274
000170 76 bc 85 bc a3 d8 33 3c e4 17 88 3d e0 df 68 bc
       -0.016325217 0.010976943 0.06645182 -0.014213532
000180 9c 8a b0 bc c0 bd 39 be 96 3e d7 bc 58 5c a5 39
       -0.02155047 -0.1813879 -0.02627496 0.00031540054
000190 fe 7b 2f bc 72 40 4a 3e 75 66 37 ba 93 0a bb 3c
       -0.010710714 0.19751146 -0.0006996163 0.02283219
0001a0 ec a2 08 bd 36 51 db bc 65 2c 61 bd 91 a4 06 3a
       -0.0333585 -0.026772123 -0.05497398 0.00051362166
0001b0 e3 68 34 3d 79 eb af bc 8d c8 d4 bc 39 b3 bd bc
       0.04404534 -0.021474587 -0.025974536 -0.02315675
0001c0 52 81 23 bc d0 f0 3a bc f8 33 8e bc db 5a 0c bd
       -0.009979563 -0.011409953 -0.017358765 -0.034266334
0001d0 8d 83 29 3a cf 8e 00 3b e8 9f ac 3a cf 9c f7 bc
       0.0006466441 0.001961637 0.0013170214 -0.03022614
0001e0 fa ad 86 3e f1 04 c7 bc fd ff 78 3c c2 a8 10 bd
       0.2630461 -0.024294348 0.015197751 -0.03531719
0001f0 65 14 8b 3b 31 7b 41 3c d0 ef cb 3a f3 a7 7b 3c
       0.0042443746 0.011809156 0.0015559141 0.015359866
000200 72 c1 0d bd c9 d9 af 3c f4 08 c6 bb 47 32 89 bc
       -0.034608312 0.021466153 -0.0060435478 -0.016747607
000210 f8 82 fc bc 38 10 74 bb 4b d4 91 bc a6 62 c6 bb
       -0.03082417 -0.0037241112 -0.017801424 -0.0060542403
000220 c9 83 45 bc 06 03 26 3c 7a 92 c8 bc ed 58 19 3c
       -0.012055346 0.010132557 -0.024483908 0.00935958
000230 1c bc 9b bc 28 4c 29 bb dd 1b 2b 3d b9 36 cd bc
       -0.019010596 -0.0025832746 0.04177462 -0.025050508
000240 1a 16 5a bd a9 5e ab 3b d3 f1 94 3c 21 85 32 bd
       -0.053243734 0.00522979 0.018181717 -0.043583993
000250 39 f6 e2 bb 6e 9d 9d 3b 48 42 8d 3b 87 aa 2e bd
       -0.0069263247 0.004810027 0.00431088 -0.042643096
000260 40 ef fb bc ff ca a1 3c 07 0e b3 3b 81 7e 1e bd
       -0.030753732 0.019750116 0.0054643187 -0.038694862
000270 3d fb 28 3c a9 d6 3e 3c 7c e1 0e bc 21 f9 a5 bc
       0.010313806 0.011647859 -0.008720752 -0.020260395
000280 71 f7 32 3b 21 00 29 bc 66 82 4d 3c b1 20 a9 bc
       0.002730813 -0.010314972 0.012543296 -0.020645471
000290 67 35 dc 3c 71 d5 b3 bc bc 17 2f bd 6b 10 50 bc
       0.026880933 -0.021952363 -0.042747244 -0.012699227
0002a0 4c 34 87 bc 3a ce 8e bc d3 c4 f1 3d 71 72 b1 bc
       -0.01650443 -0.01743232 0.11805119 -0.021661015
0002b0 d2 73 98 bb 85 eb 70 3c 01 4c 25 be 61 51 bf bc
       -0.0046524787 0.01470459 -0.16142274 -0.023354234
0002c0 e1 ad 19 be 3d 37 97 3a f7 f0 05 bd 99 2c 04 bc
       -0.15007736 0.0011536848 -0.032700505 -0.008067274
0002d0 3a 5e e1 bc 2b 8d 06 bd ed f8 38 bb f8 31 bc bc
       -0.027510751 -0.032849472 -0.0028224543 -0.022973046
0002e0 94 9e c5 3a ff ad a4 3c 52 23 6d 3a cb fb 47 be
       0.0015077167 0.020102499 0.00090460957 -0.19529645
0002f0 13 33 99 bb e2 8e 40 bc a3 79 57 3c 5a ec 06 bc
       -0.004675278 -0.011752816 0.013151559 -0.008235062
000300 1a 8b 03 3c 2c 26 9d bb 7f 8e f2 39 19 09 39 bc
       0.00802877 -0.00479581 0.00046264005 -0.011293673
000310 eb 7c d9 3b ee 39 76 3c 30 50 81 bd 6d 15 ad 3c
       0.006637206 0.01502846 -0.06314123 0.02112838
000320 aa 9a ba bb e6 b1 a7 3c cc 3f 66 bc c9 81 b5 bc
       -0.005694707 0.02047057 -0.014053296 -0.022156613
000330 46 06 11 bd 6f 72 9e bc c9 b1 9f bc 4d 7c b1 3b
       -0.035406373 -0.019341676 -0.019493954 0.005416429
000340 4b 02 70 bc fc 07 ba be 31 5e a8 3c 79 70 c1 bc
       -0.014648984 -0.36334217 0.020552726 -0.023613201
000350 50 8a 9d 3c 56 12 91 bc 11 80 84 3c 0b 4f 99 bb
       0.019230992 -0.017708939 0.016174348 -0.004678612
000360 51 07 cb bc c4 e6 18 bc b0 7d 72 bb 8a 48 55 bd
       -0.024783762 -0.009332363 -0.0037001185 -0.05207113
000370 9a f4 1c bc 3a a5 8d bc dc 6b 58 bc d1 ed cc bc
       -0.009579802 -0.0172907 -0.013209309 -0.025015743
000380 ee fe 2d bd 10 60 9e 3b 30 97 1c bd d0 f2 e1 3c
       -0.042479448 0.004833229 -0.03823012 0.027581602
000390 41 29 bf bc 75 67 af bc 6b 33 ea ba bf 9b 9b 3d
       -0.023335101 -0.021411637 -0.0017868107 0.075980656
0003a0 6c 19 bf 3a 9b 37 00 bc f7 e7 89 3b a6 10 d3 ba
       0.001457972 -0.007825757 0.0042085606 -0.0016102984
0003b0 e8 74 5a bc 28 5f 2d bc 83 43 3b bc fd 9c 4f 39
       -0.013333537 -0.010581769 -0.01142967 0.00019799541
0003c0 33 7b 01 bd ad 5e 3a 3c a0 6d 17 bb e5 18 41 bd
       -0.031611633 0.0113751115 -0.0023106113 -0.047142882
0003d0 0e ff 74 bd d1 72 35 bc 95 43 26 bd ef b6 6e 3c
       -0.05981355 -0.011074738 -0.040591795 0.014569982
0003e0 0e 5e 1b 3b d4 7a 22 3b db 42 30 bd ba 1a a7 bc
       0.0023707184 0.002479245 -0.04303251 -0.020398486
0003f0 9f 1d a9 bd 71 99 96 3c 12 66 7c 3b 29 43 4f bc
       -0.08257603 0.018383713 0.0038512987 -0.01265029

out.bias f4 [6]
000000 05 ff 97 3d af 31 56 bd 4e 58 a0 3d 9d a6 dc 3c
       0.07421688 -0.052293476 0.07829343 0.026934916
000010 7d 5f 3c bd 72 95 5d 3d
       -0.045989502 0.0540976
