pommerman/resources/qAgent.pt (torch_old, 758762 bytes, 4 tensors)

hidden.weight f4 [500, 372]
00000000: c2a2 7f3b 7b50 bf3b f4df 94bc c46a 7f3c
00000010: 286e ad3c 2cab 60bd 268e 48bd e873 9dbb
00000020: d4f7 66bc ea3b b7bc 865c 8dbc 0cc4 163c
00000030: bd86 5fbd 10ab 3f3c bdff 5ebd c323 8bbd
00000040: 6cfb 40bd a1bc 7ebd 562a 14bd e686 99bd
00000050: 04ae 523c e14d 5cbd 6456 47bd 33a2 62bd
00000060: 72bc 2fbd 843d aabb a9a9 6bbc c41f 26bd
00000070: 9302 433c d3bc 4b3b 01ea 48bd 8f79 bd3c
00000080: 6740 ae3c 6dfa 473c 58a8 233c d69e 1fbd
00000090: 31c5 abbc 8df0 a2bd c03f 093d 5612 f83b
000000a0: a005 5cbd dde8 03bb a7dc 6cbc e617 f4bc
000000b0: 62ba 2cbc ed71 d5bb 90ef 9dbd 9a66 a03c
000000c0: 6bcc 413c 39bc dd3c 41d9 9cbd b9f8 91bd
000000d0: 8dff 29bd b833 493c 44ad 1cbd 7a21 48bd
000000e0: 01ea 9abc 148a c8bc c01a f6bc 63a8 9c3c
000000f0: 3922 93bd f77c 80bc 0d82 0b3b 5cfe 96bd
00000100: 49a2 523b 2fa5 10bd ef4d 82bd cce9 dbbc
00000110: 51ed 25bd 209b 83bd bb17 6fbd 3c4b 87bd
00000120: 4a94 7bbd 987c 38bc 66dd 693c 6639 8bbc
00000130: 061a 6fbd 52f7 51bc 1580 e6ba ffc9 a13c
00000140: bba6 42bd 2a8b 963c 3690 7d3a ce2d b8bc
00000150: 5a0e 72bd 7f3c 63bd 87b7 8dbd e8b0 2bbd
00000160: 37e2 793c ce1a 2dbd d592 773c 382d 373c
00000170: 6a55 93bd 77d5 80bd 01fd 82bd e51e cbbb
00000180: d3fd 0a3c 2ecb 2dbd 76b8 c43b b3ee a0bc
00000190: 5831 413c 8407 97bd c1ca 773c 78a5 96bb
000001a0: 1750 6fbd 8952 59bd e012 edbc 1160 3a3b
000001b0: f74b 33bd 7920 b53c 9211 2abc 2ddf 06bd
000001c0: b597 89bd 5746 acbc 25d4 2c3c cdfd 0bbb
000001d0: c98f 20bc 2cf7 e13b 9cb3 63bd 4a86 8fbd
000001e0: b311 08bd ed01 9ebd 1caf e73b e3c5 5cbb
000001f0: d424 28bd 2d73 03bd f734 ae3c 405c d83c
00000200: 0a12 b63b 9ebe 6ebd 1897 4d3c 5449 cd3c
00000210: ecc8 1f3c cc24 e73c 7215 013d 802a 70ba
00000220: 7007 adbc d9fa babc 9084 7dbc fb4c c4bc
00000230: 337c 98bb 8b89 993c 7dd3 b2bd 5a1d 1ebc
00000240: 10ac 2dbd 66bf 21bd 607b 143d 902a d53c
00000250: 86f3 65bd 4814 dd3c b729 cfbc f3df 40bc
00000260: 20a7 09bd d0a4 05bd 20f2 e6bb 10e4 a23c
00000270: 5ba9 9bbc af63 4ebd d2c9 163d 1bda d8bc
00000280: 8524 383c a758 fcbc d029 fd3c 3ff6 3ebd
00000290: 510a f63c 6b6c 06bc 5026 4a3b 9a49 ae3b
000002a0: 0175 88bc 334f 57bd 57fa 51bd f7f0 4bbd
000002b0: 9f08 8e3d b782 173c 1983 1f3c d4ce 483d
000002c0: c43e 6bbc 26b3 833b 0077 dc3b ca79 3d3d
000002d0: 004d 20bd 26c7 2b3d 0e74 83bc 5f0c a03c
000002e0: cdde 6bbd 4ad3 4ebd a814 50bc 0ae0 5a3c
000002f0: 401d cd3b d856 23bd 40ba 473c 5632 11bd
00000300: 2106 733d 3a3b 3bbd b8bb df3c c87c f23c
00000310: 9c46 bfbc a724 9abd 8429 d23c 0071 1d3a
00000320: 69a3 bd3c 2472 073c 9f80 25bd 1392 aebd
00000330: 38f9 90bd b156 83bd ab5b 04bb 7632 0c3c
00000340: fc9c 2b3d 78ec f6bb 8457 44bd f399 873d
00000350: 5665 123d 1ced 943c 7e6d 4bbd 6d53 b0bc
00000360: 3066 31bd 1cf9 14bc 00e2 30bc 3044 4ebb
00000370: b354 e2bc a4f1 b73c b12d d73b 957a fe3b
00000380: fb30 a6bd a33d a7bb 07ba c7bc 4535 47bc
00000390: b66a 803c 00a1 3a3c 3227 243d a5f6 da3b
000003a0: a9ad 72bc 9722 84bd 7d43 b4bc 38fc d3bc
000003b0: 2951 853c e09b 9c3b 9a67 14bd 7c33 0bbd
000003c0: c4ca eb3c 7de8 38bd b3b6 363d 706f 083b
000003d0: 3e27 a5bc ee56 63bd b707 10bd f224 40b9
000003e0: dc5d 213d 2935 023c 1094 ae3b 009e 05bb
000003f0: 406b 4cbd 3035 7c3c 28a5 27bd 1013 7a3c
0.0039006923 0.0058384514 -0.018173195 0.01558942 0.02117069 -0.054850742 -0.04896369 -0.004805077
-0.014097173 -0.022367436 -0.017256033 0.009202015 -0.054571856 0.011698499 -0.05444311 -0.067939304
-0.047114775 -0.06219161 -0.036173187 -0.07496433 0.012858871 -0.05378521 -0.048666373 -0.055330466
-0.042904325 -0.0051953215 -0.014383712 -0.040557638 0.011902469 0.003108789 -0.04905129 0.023129253
0.021270944 0.012205702 0.009988867 -0.038969837 -0.020968052 -0.07956038 0.033508062 0.007570545
-0.053716302 -0.002012781 -0.0144569045 -0.029796552 -0.010542484 -0.006513825 -0.077117085 0.019580174
0.011828522 0.02706729 -0.076586254 -0.07127518 -0.041503478 0.012280397 -0.038251176 -0.04886005
-0.01891041 -0.024479903 -0.030042052 0.019123262 -0.07184262 -0.015684588 0.0021287233 -0.07372734
0.0032140187 -0.03531378 -0.06362521 -0.026844881 -0.040509526 -0.06426072 -0.05837224 -0.06606147
-0.061420716 -0.011260174 0.014273977 -0.016995143 -0.058374427 -0.012815313 -0.0017585779 0.01974964
-0.047522288 0.018376905 0.0009672673 -0.022482779 -0.059095718 -0.055477615 -0.06919771 -0.041916758
0.015251688 -0.04226189 0.015110691 0.011180215 -0.07194026 -0.06290715 -0.06395913 -0.0061987513
0.008483368 -0.042430095 0.006003435 -0.01964507 0.01179155 -0.0737448 0.015124024 -0.004597362
-0.05842599 -0.053057227 -0.028939664 0.0028438608 -0.043773618 0.02211021 -0.010380166 -0.03292768
-0.06718389 -0.021029634 0.010548626 -0.0021360994 -0.009799906 0.0068959203 -0.05559121 -0.070080355
-0.033220004 -0.07715211 0.007070435 -0.0033687286 -0.041050747 -0.032092262 0.02126549 0.026411176
0.0055563496 -0.058287255 0.012548231 0.02505938 0.009752493 0.028215788 0.031514592 -0.00091616064
-0.02112171 -0.022824692 -0.0154735 -0.023962488 -0.0046534776 0.018742343 -0.087317444 -0.009650553
-0.04240042 -0.039489172 0.036250472 0.026021272 -0.056140445 0.02698721 -0.025288446 -0.011772144
-0.03360665 -0.03262788 -0.0070479065 0.01988414 -0.019001653 -0.050388034 0.036813565 -0.026471188
0.011239176 -0.030803991 0.030903727 -0.046621557 0.030034216 -0.00820456 0.003084559 0.0053188326
-0.016657354 -0.052565765 -0.051264133 -0.04979035 0.06935238 0.009247473 0.009735846 0.04902537
-0.014358226 0.004019159 0.006728053 0.046258725 -0.039135933 0.04193797 -0.01604655 0.019537149
-0.057585526 -0.05049447 -0.012700237 0.013359079 0.0062595904 -0.039877743 0.012190402 -0.035448395
0.059332017 -0.04571078 0.027311191 0.029600516 -0.023349099 -0.07526522 0.025654562 0.0006005913
0.02314921 0.008266959 -0.040405866 -0.08523955 -0.07078785 -0.064130194 -0.002019624 0.008556953
0.04189776 -0.0075355135 -0.047935024 0.0662116 0.035741173 0.018179469 -0.049664967 -0.021524156
-0.043310344 -0.009092595 -0.01079607 -0.0031473748 -0.027628278 0.02245409 0.006566726 0.0077660778
-0.08114811 -0.005103783 -0.024380697 -0.012158697 0.015675884 0.011390924 0.040076442 0.0066822344
-0.014811912 -0.0645191 -0.022004837 -0.025877103 0.016274052 0.004779324 -0.036231615 -0.033984646
0.02878321 -0.045143593 0.04460783 0.0020818375 -0.020160314 -0.055502824 -0.035163607 -0.0001832431
0.039396152 0.007947245 0.005327709 -0.0020388365 -0.04990697 0.01539354 -0.04092899 0.015263334

hidden.bias f4 [500]
00000000: 6280 5d3c 5c71 57bd cb85 bdbc cb71 3dbd
00000010: 7b3b 5bbd bb52 f6bc 5161 77bd e101 20bd
00000020: 0b62 9fbd 5b65 6a3b 0fb5 28bd 6d1f 95bc
00000030: 4d37 adbc 59dd a13c 26b6 e53b b103 33bd
00000040: de92 6abb d1af 5dbc 0c89 a1bd 0719 64bd
00000050: b249 b0bc f9d3 70bd 2187 643c c540 943c
00000060: 5f3d fd3c 493b b63c b388 14bc dacb 6dbd
00000070: 51ca b8bc 8cb9 a5bd f391 8dbd f64e 68bc
00000080: b686 fdbb c888 993c 175c d1bd f11e 42bd
00000090: e53f 0dbd 1f55 11bd e1ec 9e3a 7d0a 5bbd
000000a0: 1305 16be 63a3 58bd cc97 1dbd 68a8 ecbc
000000b0: 7d00 86bc feff 44bd bbc2 3a3b 5181 acbd
000000c0: cdfe 19bd bc04 55bd 5adf 1dbc 2cf2 353c
000000d0: e2be 9dbd 9bdf 60bd 724f 86bc d336 e5ba
000000e0: 4867 a0bd e740 9e3b 10d5 a6bd bc82 ae3d
000000f0: 0192 96bd cf5d 5fbd 2505 69bb c93b e5bc
00000100: be0f dbbc 1644 e6bc f2a8 cc3c a028 88bd
00000110: 5e55 42bd a628 a6bd ad4a 7ebd b789 83bd
00000120: 586d f7bb 92f2 6ebd fb92 623c a992 58bb
00000130: 2acf 8fbc 2d6d 7dbd af43 83bc f183 c83b
00000140: 92f6 88bd 5987 5bbb 9524 43bd 2dee 78bd
00000150: 6b7e 71bb 0822 53bc 6530 4ebd 7b7a 103c
00000160: befd 2cbd 6ae5 36be a68c 99bc b78f f53b
00000170: 4e25 52bc b1d3 d9bc 461a 86bd 8f2a d7bc
00000180: 1941 2bbc 21c0 64bd b3c1 c5bd 12a1 86bd
00000190: feaf 3abd 6ab6 82bd 73b6 e3bc f503 df39
000001a0: afae cbbc 5b46 f2bb d09c 96bd f47f b13c
000001b0: 9ae6 5fbd e05d 3fbd f65c 74bd 0070 abbc
000001c0: c478 8cbd a3b2 f83a 8105 a4bd 52cb 63bd
000001d0: e346 753b 8595 35bd d90b 14bd 15f6 94bd
000001e0: c71a 69bd 1b73 7e3c b2ac 12bd 574d 58bd
000001f0: a0f7 a0bd d1d4 fbbc e19c d8bc 3ed0 16bd
00000200: 8275 0abd 9ac7 1bbd c32e 063c e50f a8bd
00000210: 7dc1 c4b8 a0e4 f2bc 5d53 bdbc 87e4 bc3c
00000220: e93d 1abd be75 97bc acc6 013d 7ddd a5bc
00000230: 7aaf 6abd 27f4 79bd 655b 8abc fc06 84bc
00000240: 4f87 89bc 5ee6 a8bd 295d 82bd 90fc 8fbc
00000250: aa7c 00bd 95b1 57bd 9a7f 30bd 34af 1abd
00000260: 8125 a43a 5edb 72bd fc9d 07bd 39b8 b93c
00000270: a5fe b5bb d5e8 45bd 4848 e6bc 5fa7 6bbd
00000280: e83e edbc 2040 11bd 62c4 27bd d516 0fbd
00000290: d208 803a d264 7ebc f37f 623c 463b 6ebd
000002a0: a679 8abd 04d5 cdbc b60a c33b 4890 823c
000002b0: ab3f 9a3c 8ed3 3b3c d392 8abd 0a99 98bd
000002c0: 9997 90bd 29d7 84bc 8fa5 25bd a896 92bd
000002d0: ba53 71bd a5e3 70bd 30eb c5bc 7d2b debb
000002e0: 0b40 67bd 70d8 87bc 347c 14bd e4a8 08bd
000002f0: fab9 85bd 7cd6 60bc 0ee0 223c 6072 a1bd
00000300: 3291 6ebd 64ba 403c 7767 99bd 8f4b 023b
00000310: 5316 72bd 28ba 53bd 1b10 3cbd 90d0 a13c
00000320: b829 94bc 6799 06bd 8912 5dbb 4249 56bd
00000330: 2fe2 873c 510a 48bd 251d 8dbd 02a2 4bbd
00000340: 2df7 0abc 96c9 99bd b13a 13bd 0c7e 17bd
00000350: f770 43bd 0f7b 293c 46c1 493c 1576 c4bc
00000360: b14f 2ebd dee4 2f3c f2fe adbd 7427 36bc
00000370: 062c 883c 900d 8bbd cb41 67bc 1436 1abd
00000380: 1af4 86bc 1d84 bc3b 8b56 54bd 72ea c6bc
00000390: 0997 98bd 2121 dabc fe06 07bd 7df2 613c
000003a0: ef0a 91bd 5523 fdbc c56c 913c 3e99 a2bd
000003b0: 819f 92bd ced1 8cbd d990 ddbb 303a 00bd
000003c0: e7d8 933c b52b 74bd cf28 ca3c b346 33bd
000003d0: 58e7 9abd be9b 43bd ab8a cfbc b0b0 99b7
000003e0: d209 07bd eb35 c3bb 5fb7 d2bc 16c5 5f3b
000003f0: 4987 83bc 492b 9ebd 09f0 6fbd 2c93 fbbc
0.013519378 -0.052598342 -0.023135087 -0.0462511 -0.053523522 -0.030068746 -0.060395543 -0.039064292
-0.07782372 0.003576598 -0.041188296 -0.018203462 -0.021144534 0.019758867 0.007010239 -0.043704692
-0.0035793106 -0.013530687 -0.07887468 -0.05568793 -0.021519516 -0.058795903 0.013948233 0.01809729
0.030913053 0.022245066 -0.009065795 -0.058055736 -0.02255741 -0.08092031 -0.06912603 -0.014178982
-0.007737006 0.01874198 -0.10222643 -0.04739279 -0.034484763 -0.03548157 0.0012125039 -0.0534768
-0.14650373 -0.052890193 -0.038474843 -0.028888896 -0.016357655 -0.048095696 0.0028497416 -0.08423103
-0.037596513 -0.05200647 -0.009635771 0.011105102 -0.07702424 -0.054900747 -0.016395304 -0.0017487652
-0.07832199 0.0048295143 -0.08146107 0.08521029 -0.07352067 -0.054532822 -0.0035556045 -0.02798261
-0.026740905 -0.028108638 0.024982903 -0.066483736 -0.047444694 -0.08113222 -0.062082935 -0.064227514
-0.0075508766 -0.0583368 0.013828988 -0.00330464 -0.017554838 -0.061871696 -0.016023485 0.0061192443
-0.066876546 -0.0033497422 -0.04764231 -0.060774017 -0.0036849033 -0.012886532 -0.05033912 0.008818264
-0.042234175 -0.17860952 -0.018743824 0.007493939 -0.012826277 -0.0265902 -0.0654798 -0.02626541
-0.010452532 -0.05584729 -0.09656086 -0.065736905 -0.045577995 -0.06382449 -0.02779696 0.00042536823
-0.024863569 -0.007393641 -0.07354128 0.021667458 -0.05466328 -0.046720386 -0.059658967 -0.02092743
-0.06858972 0.0018974136 -0.08008862 -0.055613823 0.0037426285 -0.044332046 -0.03614411 -0.07273499
-0.056910302 0.015530373 -0.035809226 -0.052808132 -0.07859731 -0.030741127 -0.026441993 -0.03681969
-0.03380347 -0.03803215 0.00818986 -0.08206157 -9.382048e-05 -0.029650033 -0.02311104 0.02305819
-0.0376567 -0.018488761 0.03168361 -0.020247215 -0.057296254 -0.061023857 -0.016889283 -0.016116612
-0.016788153 -0.08247064 -0.06365425 -0.017576486 -0.03136889 -0.05265959 -0.04309044 -0.037764743
0.0012523384 -0.059291236 -0.03310965 0.022670852 -0.0055540376 -0.04831775 -0.028110638 -0.057532664
-0.02896066 -0.035461545 -0.04095877 -0.034933884 0.0009768254 -0.015526967 0.013824451 -0.058161996
-0.06761484 -0.025125988 0.0059522046 0.01593794 0.018829187 0.011464013 -0.06766286 -0.07451065
-0.07060165 -0.016215878 -0.040441092 -0.07157642 -0.05891774 -0.05881085 -0.024159998 -0.0067800866
-0.05645756 -0.016582698 -0.03625126 -0.03336419 -0.06529613 -0.013723012 0.009941114 -0.078831434
-0.058243938 0.011763189 -0.074904375 0.0019881462 -0.05910332 -0.051691204 -0.045913797 0.01975277
-0.0180863 -0.03286114 -0.0033732972 -0.052315958 0.016587345 -0.048837963 -0.068903245 -0.04971505
-0.008481783 -0.075091526 -0.035944644 -0.036985442 -0.047715154 0.010344281 0.012314146 -0.023982087
-0.04255647 0.0107357185 -0.084958926 -0.011117805 0.016622555 -0.06789696 -0.014114807 -0.03764923
-0.016473819 0.005753054 -0.051840346 -0.024281714 -0.07450683 -0.026627125 -0.032965653 0.013790724
-0.070821635 -0.030900637 0.01775206 -0.07939385 -0.07159329 -0.068759546 -0.006761652 -0.031305492
0.018047763 -0.059611995 0.024677662 -0.043768596 -0.075636566 -0.04775595 -0.025334677 -1.8321298e-05
-0.03296835 -0.0059573553 -0.025722204 0.0034144572 -0.01605572 -0.077231 -0.058578525 -0.030709825

out.weight f4 [6, 500]
00000000: 5091 83bc f532 ad3c 64f7 9f3c 2000 0dbd
00000010: 1af3 c13c 0bba 183c d5a5 6a3c 9924 79bb
00000020: 3b56 45bc 4fa8 83bc 3712 7dbc bc78 b2bc
00000030: 2e3c f2bb f883 46bc b9a5 063b 8582 f23a
00000040: ea7e 41bc aacf ba38 d9eb 69bc 2e93 52bc
00000050: 09b7 b2bc d3e2 56bb a82c 103c cf54 3cbc
00000060: 2ea2 dfbc 954c 8dbc a9ee b7bc a2c6 f93c
00000070: 9168 04bd 2f00 7abc aa21 c33c 6853 1b3c
00000080: 6022 87bc bfcc 90bc fdfa 343d 578f 053c
00000090: 7dce 8fba c379 cebc a9d9 923b 5f2e 1b3c
000000a0: 4d27 803d 9433 bcbc 26dd 343e e10e 0c3b
000000b0: bd0d 1d3c 50ce 01bb 8365 f8bc 96a8 713c
000000c0: 2721 ce3c 91f4 05bc 6660 adbc e985 cb3b
000000d0: 3f5d aeba 3b1d 4bbc 64de 90bc be17 0dbc
000000e0: 4ed0 d83c 8e88 24bb 9771 2cbd 8bff 453e
000000f0: 4f40 1bbc d9ea 7b3b cc11 32bc 09e9 203c
00000100: 3898 adbc cc21 46bc e58e e4b9 8a3a a3bb
00000110: fd65 b73c 35a0 40bc 082e da3c 4711 7bbc
00000120: 3c33 b23c 9143 0abd 509f cdbc 455e f5bc
00000130: 74e9 6e3b d258 e23b e017 64bb f5a9 6d3c
00000140: 4bfc 923b 364d 583c 0843 b6bb 77af 56bb
00000150: 0b8a f63a a244 91bb bc17 09bd 762e 8b3c
00000160: f1f7 c7ba 68c5 c1bd 57d4 72bc 7448 3c3b
00000170: db15 cfbc ad0e 21bb d5a7 95bc 59be 8dbb
00000180: 9b5a 90bc 6212 f6bc 94f6 42bc abd8 473c
00000190: 74ca c53b db5a edbc fb56 87bc 3413 72bb
000001a0: 7c94 e2bb 5901 a33b 61b5 93bc 5c62 35bc
000001b0: 537f e03b 4bb8 d0bc e06e 8f3c c8d6 2ebd
000001c0: 3509 68bc f72f 85ba 3fd8 d7bc 4e33 ddbb
000001d0: f5f2 bf3c ee9b e0bc a156 533c 90b7 1ebc
000001e0: e2ba 4d3b 55bf 87bc 3b4b 15bd ae2d bfbc
000001f0: 1737 f1bc 0bd3 1fbd 7f57 eabb 0c34 91bb
00000200: ec0c a4bc e46a 343c e9d2 90bb a101 93bc
00000210: 9dfd 52b9 d53a 593c be80 8c3b 45f4 e539
00000220: 27fb c7bb cc45 6bbd 8ce6 403c a984 3b3c
00000230: 84b1 7e3b 50de c53c dfe4 4bbc e0e0 b5bc
00000240: 92c1 5fbd 6b7c 88bc 64a9 2cbc fffe 33bc
00000250: fdb7 febc fdff 50bc f334 acbc 1d37 95bc
00000260: d95e 98bc a502 14bc 0743 a2bc ab3a ebbc
00000270: 2a10 dbbb 81bd 043d 5e32 13bc 4c77 bd3b
00000280: 1255 ff3b e032 b8bc 508a 8aba 654f a5bb
00000290: 69b9 593b 6918 f3bb 2414 853a 9ddc 9ebc
000002a0: 1cc6 6f3a caae 27bc a28d 4d3c b562 313d
000002b0: 6cb4 8c3b f121 643c 06d8 72bc a4d1 faba
000002c0: 8bbb a63a 8001 2fba 0cc6 20bb fefc 38bc
000002d0: cd8c a73c 49f7 91bc 6764 1abd 47c6 6bbc
000002e0: ad15 0a3c 2096 a33c a95e 79bb 3c01 7a3c
000002f0: 24d8 963c 1ed6 d03a 5545 bc3c 5117 5cbc
00000300: ddef d83c cc92 493b 435c 5ebc 97b7 e9bc
00000310: 49af f13d 1164 ce3c 6a1b d1bc 066b 73bc
00000320: d261 b43b 3b53 64bc 59d4 8a3b 6907 ccb9
00000330: ecc9 043c f128 14ba 5c68 ff3c 132f a1bc
00000340: 6a70 6fbc b79d 13bc 927c 90bb 1cf4 313c
00000350: a8aa 1bbc a9b2 87bc 7a08 923c 26df 253b
00000360: f40a 30bd 6245 a4bb 5834 c53c 4079 34bc
00000370: f093 68b9 fd00 7fbc cb5b 0bbd e2a8 59bc
00000380: 2b30 0b3d 2c40 4dbc a5d2 8a3c 2e0e 19bd
00000390: b5c0 4d3c f5d1 47bc 2816 8b3c 203e e9bb
000003a0: 54f8 9d3b e950 2a3c 4822 6bbc 2eee 1d3c
000003b0: 8d84 c4bb 0c08 9abc 3c53 9e3a 1f46 02bd
000003c0: 067f 62bc 19ab 4a3b a102 bfbc b474 303d
000003d0: 9d92 cd3a 19dc c33b 7b08 06bb 5b41 d93b
000003e0: d422 623c 315d 8abc 984a ebbc 6e66 6ebc
000003f0: 2d5f af3c 5c47 2bbc 04be 2abd 0600 0bbd
-0.016060501 0.021142462 0.019527145 -0.034423947 0.02367549 0.0093217 0.014321764 -0.0038016199
-0.012044485 -0.016071467 -0.015446237 -0.021786086 -0.007392428 -0.012116425 0.0020545556 0.0018502033
-0.011810044 8.9078516e-05 -0.014277422 -0.012852473 -0.021815794 -0.0032789006 0.008799709 -0.011494829
-0.027299013 -0.017248431 -0.02245267 0.030490223 -0.032326285 -0.015258833 0.023819763 0.009480335
-0.016495883 -0.017675756 0.044184674 0.008151851 -0.0010971572 -0.025204545 0.0044815135 0.009471505
0.06257496 -0.022973813 0.17662486 0.0021371173 0.009585795 -0.001980681 -0.030321842 0.014749667
0.025162293 -0.008175985 -0.02116413 0.0062110317 -0.0013302936 -0.012397106 -0.01768417 -0.008611618
0.026466515 -0.0025105807 -0.042100515 0.19335763 -0.009475782 0.003843954 -0.010868501 0.009821185
-0.021190748 -0.012093019 -0.00043594014 -0.0049813436 0.022387499 -0.011756946 0.026633278 -0.015323943
0.021752946 -0.033755843 -0.02510038 -0.029952178 0.0036455067 0.006907561 -0.003480427 0.014505853
0.004485642 0.013202002 -0.00556219 -0.0032758394 0.001880945 -0.0044332305 -0.0334699 0.016989928
-0.0015256387 -0.094614804 -0.014821134 0.002872971 -0.025278976 -0.0024575398 -0.018268505 -0.0043256697
-0.017621329 -0.030038062 -0.011899609 0.012197654 0.006036097 -0.028973987 -0.016520968 -0.0036937715
-0.0069146734 0.004974526 -0.018030824 -0.011070814 0.0068511157 -0.025478503 0.017508924 -0.0426853
-0.014162351 -0.0010161389 -0.026348231 -0.0067505008 0.02343128 -0.027418103 0.012899072 -0.009687319
0.0031391908 -0.016570726 -0.0364487 -0.023337211 -0.029445214 -0.039019626 -0.0071515436 -0.0044312533
-0.020025693 0.011011813 -0.0044196737 -0.017945113 -0.00020121639 0.013258656 0.004287808 0.0004386028
-0.0061029377 -0.05743961 0.011773717 0.011445203 0.0038863132 0.024153858 -0.012444704 -0.022201955
-0.054627962 -0.01666089 -0.010538433 -0.010986089 -0.031093592 -0.012756345 -0.021021342 -0.018214757
-0.018599914 -0.009033834 -0.019807352 -0.028714499 -0.0066852765 0.032407288 -0.008984176 0.0057820436
0.0077921236 -0.022485197 -0.0010569785 -0.005044865 0.0033222085 -0.0074186814 0.0010153097 -0.019392306
0.0009146647 -0.010234544 0.012545975 0.043307025 0.004293969 0.013924108 -0.014822012 -0.0019135964
0.0012720687 -0.0006675944 -0.0024532108 -0.011290787 0.020452881 -0.01781811 -0.037693407 -0.014390535
0.0084280195 0.019969046 -0.0038050807 0.015259083 0.01841361 0.0015932953 0.022982279 -0.013433293
0.026481563 0.0030757664 -0.013571802 -0.028529925 0.11801011 0.0251942 -0.025525767 -0.014857059
0.005504825 -0.013935859 0.0042367396 -0.00038915433 0.008104783 -0.00056518527 0.031177692 -0.019675767
-0.014614204 -0.00900977 -0.004409381 0.010861423 -0.009501137 -0.016564684 0.017826308 0.0025310009
-0.042979196 -0.005013154 0.024072811 -0.011015236 -0.00022180355 -0.0155642005 -0.034023087 -0.013284894
0.033981483 -0.012527507 0.016946146 -0.03736704 0.012558152 -0.012196054 0.016978338 -0.0071180016
0.004820863 0.010395267 -0.014351435 0.009639306 -0.0059972466 -0.018802665 0.0012079249 -0.031805154
-0.01382423 0.0030924736 -0.023316683 0.043080047 0.0015683953 0.0059771654 -0.0020451832 0.0066301054
0.013802249 -0.01689014 -0.028722093 -0.014550788 0.021407688 -0.010454025 -0.04168512 -0.03393557

out.bias f4 [6]
00000000: cb1f b1bd 6b1a b53d e436 3c3e 6d32 463e
00000010: 81df 4d3e ca5e ae3d
-0.08648642 0.088429295 0.18380314 0.19355173 0.20104791 0.08514173
